18.transformer/model.pt (torch, 266126 bytes, 64 tensors)

encoder.embedding.weight f4 [184, 32]
-0.20560285 0.22800475 0.051374156 -0.9419713 0.6599541 -0.15446642 1.9555321 0.038603503
0.099649414 0.035994194 -0.75100255 -0.40493095 -0.1786744 1.5096562 -1.7248751 -0.9674216
0.1571882 0.41173404 1.7578601 -0.080031216 -0.24058455 0.8516164 -0.24063425 -0.23418581
0.12387997 -1.4889907 1.2409564 -0.37058574 -0.77585804 0.16261323 -2.7535167 -0.43869916
-0.93213403 -0.2000668 -1.224294 0.9591642 -0.2549504 -1.4994369 1.789979 -0.24819174
0.25683418 2.0557811 0.1646904 -1.2983583 -0.20853016 -1.0122349 0.06495019 0.9277564
-0.68990326 -0.53463626 0.05515507 0.21737863 0.399109 -1.8829751 0.1622295 0.37305325
-0.11723844 -0.10326225 1.1842409 0.84374267 1.1046011 -0.74287856 -0.6164768 1.7860391
-0.24611032 -1.2586856 -1.34835 -0.14708793 0.28480104 -0.13859116 -0.0077977204 -0.019507518
0.57320553 -0.7862209 0.23453519 0.7691864 0.18815874 1.3633848 0.61814153 -1.0584798
0.43515196 -0.6645098 0.52773297 -0.26270986 0.53342044 -0.010365692 1.0669341 0.6091276
-0.6645179 0.077604026 -1.1234996 0.30901593 1.644976 -0.42712504 -0.323924 0.5797125
1.4349798 0.67373884 1.1374794 -0.48732957 -0.6203922 0.22620156 1.6287762 -0.68144715
1.1026564 -0.30142474 -0.12311155 0.6713671 -1.1259019 -0.3669188 -1.352076 1.3981204
0.12404463 -0.0014588106 0.6771545 -0.33910337 -1.203535 -0.009231723 -0.39113948 2.7682219
-0.89680725 0.5943248 -0.55694467 1.48472 0.14548889 1.9768721 0.16764648 -0.71431214
-0.73630357 -0.49378753 -1.1962594 -0.8419376 0.8001153 0.76516086 0.06881663 0.19445552
0.8801359 -0.4229819 -0.109859556 0.1350708 0.088643156 0.26960254 -0.7117511 -0.68079984
0.25274196 -0.2620189 -0.33562365 -0.8063126 0.49225092 -0.17557389 0.1204034 -0.62562686
-1.0373603 -1.077413 -0.38936788 -0.2733194 0.42311677 -0.19112435 0.7202634 -0.50033313
-0.284421 -0.28527543 0.9244862 0.5328358 1.0477446 -0.08435143 -1.1817318 1.8097156
1.3468491 -0.04760313 1.7026163 -0.62813926 0.85110575 -0.20131229 0.30434445 0.17117569
1.0151953 -0.5984942 -0.49893978 0.0016357205 -0.56448805 0.14676948 1.8593961 -0.061961107
-1.3276544 -0.96637625 1.4684869 1.6550499 0.72204286 -0.11186926 1.4247051 -0.21587864
0.17621815 -1.4230069 -0.63025814 -1.1893109 0.3258945 0.121585436 1.4775633 -0.21989219
-0.517026 -0.24239919 -0.8060015 1.0626471 1.1549863 -0.40509596 -0.9603102 0.16013527
-0.662325 -1.2680256 -0.7001117 1.0291573 -0.1626098 0.88132936 0.92323893 0.4015517
-0.61128926 1.2754297 0.0690928 0.7082403 -0.28113037 -0.3850624 -0.89187545 1.3338618
0.44552806 -1.5035423 2.6507316 -1.2304821 -0.2519478 0.6841812 1.0793998 0.45521632
-1.222691 1.4170626 -0.5343911 -1.6412308 -0.723368 1.5286216 2.219388 1.0795283
-1.3735378 -0.12602879 -0.25764003 -0.85476506 2.7505007 -0.78745437 -0.77929443 -0.2529908
-0.5530826 1.1048895 -1.5437269 -0.49285042 0.5413841 -1.2659029 -0.2294153 -0.95329463
00000000: 8e89 52be 147a 693e b56d 523d 0825 71bf
00000010: c0f2 283f 722c 1ebe e04e fa3f b51e 1e3d
00000020: fe14 cc3d a66e 133d b441 40bf 1c53 cfbe
00000030: 6cf6 36be 6a3c c13f b5c8 dcbf f1a8 77bf
00000040: f2f5 203e cece d23e 8f01 e13f 68e7 a3bd
00000050: cc5b 76be 8803 5a3f d368 76be 68ce 6fbe
00000060: c8b4 fd3d 3f97 bebf a9d7 9e3f 6abd bdbe
00000070: a29e 46bf 1584 263e 9e39 30c0 2d9d e0be
00000080: 56a0 6ebf 50de 4cbe aab5 9cbf c98b 753f
00000090: dc88 82be 8ced bfbf 081e e53f fa25 7ebe
000000a0: c57f 833e eb91 0340 9aa4 283e 9b30 a6bf
000000b0: ee88 55be ea90 81bf 9b04 853d 7281 6d3f
000000c0: 809d 30bf ecdd 08bf 48ea 613d 8198 5e3e
000000d0: 0458 cc3e 5405 f1bf 7d1f 263e d600 bf3e
000000e0: b51a f0bd 297b d3bd 3595 973f 85ff 573f
000000f0: 9263 8d3f 4a2d 3ebf 6cd1 1dbf ee9c e43f
00000100: 5804 7cbe 9c1c a1bf bc96 acbf 389e 16be
00000110: 71d1 913e d7ea 0dbe 0584 ffbb 3bce 9fbc
00000120: 99bd 123f c645 49bf fe29 703e 66e9 443f
00000130: afac 403e 6583 ae3f 863e 1e3f 447c 87bf
00000140: 3dcc de3e 501d 2abf 8219 073f e881 86be
00000150: 3e8e 083f ddd4 29bc 4c91 883f c9ef 1b3f
00000160: d81d 2abf dcee 9e3d d6ce 8fbf 5637 9e3e
00000170: 938e d23f 22b0 dabe 5ed9 a5be 0a68 143f
00000180: 6bad b73f 267a 2c3f ed98 913f 4383 f9be
00000190: 06d2 1ebf 62a1 673e bd7b d03f 5273 2ebf
000001a0: d823 8d3f 5854 9abe e921 fcbd b7de 2b3f
000001b0: 8e1d 90bf c8dc bbbe d410 adbf 9cf5 b23f
000001c0: 1c0b fe3d 9035 bfba ff59 2d3f f59e adbe
000001d0: 6f0d 9abf a740 17bc 6f43 c8be 8c2a 3140
000001e0: 2995 65bf ac25 183f ed93 0ebf 4e0b be3f
000001f0: 0afb 143e 250a fd3f 85ab 2b3e 29dd 36bf
00000200: 647e 3cbf b8d1 fcbe 071f 99bf 3989 57bf
00000210: 5bd4 4c3f 95e1 433f bcef 8c3d 591f 473e
00000220: 9650 613f 1591 d8be 0cfe e0bd 0050 0a3e
00000230: 8b8a b53d 5809 8a3e 5235 36bf e648 2ebf
00000240: 6567 813e 5727 86be ddd6 abbe 816a 4ebf
00000250: 5008 fc3e a4c9 33be 0f96 f63d 1529 20bf
00000260: 39c8 84bf abe8 89bf 3a5b c7be 85f0 8bbe
00000270: c3a2 d83e 1ab6 43be 2f63 383f d515 00bf
00000280: a19f 91be 9f0f 92be 21ab 6c3f ed67 083f
00000290: 7f1c 863f 71c0 acbd fd42 97bf c3a4 e73f
000002a0: 8d65 ac3f 80fb 42bd 55ef d93f bccd 20bf
000002b0: 11e2 593f cf24 4ebe 09d3 9b3e ae48 2f3e
000002c0: ebf1 813f ea36 19bf 0975 ffbe ac65 d63a
000002d0: 4a82 10bf bd4a 163e b100 ee3f eeca 7dbd
000002e0: 94f0 a9bf 6f64 77bf 61f7 bb3f add8 d33f
000002f0: cdd7 383f b61b e5bd bd5c b63f 4a0f 5dbe
00000300: 8872 343e 1725 b6bf 9958 21bf 573b 98bf
00000310: a5db a63e c901 f93d cb20 bd3f 6b2b 61be
00000320: d15b 04bf 7e37 78be 1d56 4ebf d204 883f
00000330: 97d6 933f bd68 cfbe e4d6 75bf 80fa 233e
00000340: 228e 29bf aa4e a2bf 853a 33bf 6dbb 833f
00000350: 2f83 26be cd9e 613f 6359 6c3f 2f98 cd3e
00000360: 747d 1cbf 4841 a33f 8780 8d3d 3c4f 353f
00000370: 52f0 8fbe e626 c5be f351 64bf fcbb aa3f
00000380: 411c e43e 1374 c0bf 96a5 2940 7080 9dbf
00000390: 4dff 80be 8026 2f3f c629 8a3f 1d12 e93e
000003a0: 2481 9cbf 4f62 b53f dbcd 08bf da13 d2bf
000003b0: a52e 39bf dfa9 c33f 740a 0e40 fc2d 8a3f
000003c0: 16d0 afbf b10d 01be 65e9 83be e2d1 5abf
000003d0: 3408 3040 9c96 49bf d77f 47bf 0388 81be
000003e0: d296 0dbf 056d 8d3f d898 c5bf e456 fcbe
000003f0: 2698 0a3f 1b09 a2bf d8eb 6abe 1e0b 74bf

encoder.blks.block0.attention.W_q.weight f4 [32, 32]
-0.1706331 0.23116025 -0.22797556 -0.096586265 0.20280641 0.32792178 0.43634737 -0.0693001
0.26655194 0.23775867 0.16691953 0.4847135 -0.29882997 0.25716624 -0.32196042 -0.28007245
0.058023892 0.24114418 0.32181594 0.16726069 0.14655803 0.13141087 -0.025482515 -0.36863732
-0.43601915 0.11472575 0.20535983 0.25233433 0.0056990273 0.4516898 0.190262 -0.21871711
-0.104160964 -0.32637534 -0.20980427 0.32645535 0.4904037 -0.30260733 -0.13937029 0.18768907
-0.038316034 0.09434303 -0.041277908 0.5474396 -0.07804849 -0.11046938 0.13438548 0.33263588
0.018827677 -0.039902244 -0.33402503 0.24064462 -0.22477114 0.14254348 0.38586563 0.46477672
0.52070135 0.26346168 0.17928447 0.06348888 0.23717485 0.05829922 0.017696647 0.23203298
0.16379973 0.32338643 0.36991832 -0.14125659 -0.1456739 -0.08699334 0.44605368 -0.1609768
-0.18049346 0.3692845 -0.4051852 -0.03688845 -0.43402997 0.020422446 -0.26557314 -0.048195373
-0.1931099 0.23501024 0.26228756 -0.31795073 0.3124249 0.014121703 -0.13969387 -0.1577333
0.1252247 0.098423466 -0.33501455 0.17270815 -0.00074468885 -0.24930948 -0.40096903 -0.5537241
0.19489868 0.10796392 0.32502156 -0.1813822 -0.050891213 -0.076419726 -0.11284064 -0.13522655
0.058999583 -0.057848804 -0.07494783 0.2386511 -0.20089622 0.20603022 -0.25105965 -0.28885993
0.14958096 0.019263912 0.21811505 -0.23641914 -0.10224714 0.4800827 -0.113113195 -0.34865823
-0.46845368 -0.3292 0.31806758 -0.04012813 0.07314617 -0.029501952 0.18683517 -0.17940281
0.5668402 -0.07546968 0.03650981 -0.34238285 0.073850095 -0.016268179 -0.70150346 0.07374008
0.11861673 -0.06219655 0.21580075 0.0084043285 -0.1058361 -0.10019856 0.3300246 0.09130947
0.12244266 0.33446145 0.4651717 0.014806974 -0.12126434 -0.2613077 -0.027687388 0.17330031
-0.17988181 -0.09760584 0.007187694 0.26825827 0.23536414 0.063387446 -0.6040736 -0.28964755
0.31723186 0.2587192 0.210765 -0.25658688 0.003816986 0.5897055 -0.27547178 0.028702868
-0.5089376 -0.33570305 -0.19910306 -0.03396798 -0.2683825 -0.06682965 -0.04035668 -0.20225143
0.08586814 0.15285102 -0.060758602 0.5705295 -0.012234719 -0.26966307 -0.119363196 -0.48756993
-0.19665101 0.078321494 0.6864017 -0.14002712 -0.04993857 -0.5596969 0.13439693 -0.3087461
-0.17983437 -0.11001578 0.4916295 -0.016605379 -0.17863183 -0.411556 -0.14956632 0.028676974
-0.029956782 -0.3333259 -0.0050681587 -0.04143875 -0.22911912 -0.29608655 -0.019970061 -0.22056551
-0.038015142 -0.23661144 0.15992759 -0.36376572 0.05114916 -0.08477602 -0.06737511 0.44853047
0.020841355 -0.07025885 -0.11157854 0.31808895 -0.016336475 0.21889724 -0.07435471 -0.15901388
0.18011229 -0.121980436 -0.22445504 0.4359829 0.49819705 -0.009475442 0.267672 0.25069082
0.32623592 0.26852915 0.13462786 0.28110996 0.16044901 0.08884175 -0.21755093 -0.38755864
0.27364403 0.2921483 -0.14129026 -0.21311569 0.06395584 0.13858718 0.24621794 0.25644496
0.18897629 0.115791425 -0.64806974 -0.100550614 0.30534062 0.05914301 0.12619305 0.38746282
00000000: 72ba 2ebe 46b5 6c3e 6d72 69be 05cf c5bd
00000010: 7cac 4f3e 5de5 a73e ec68 df3e 36ed 8dbd
00000020: 7f79 883e 0277 733e f4ec 2a3e 5e2c f83e
00000030: 3e00 99be 4bab 833e ffd7 a4be a865 8fbe
00000040: 76aa 6d3d 80ee 763e 0fc5 a43e 6346 2b3e
00000050: 4f13 163e 9290 063e b5c0 d0bc 08be bcbe
00000060: e73d dfbe 56f5 ea3d d949 523e f731 813e
00000070: e8be ba3b e343 e73e 0bd4 423e 61f7 5fbe
00000080: 5852 d5bd ab1a a7be eed6 56be 2825 a73e
00000090: 3216 fb3e 59ef 9abe 16b7 0ebe 9031 403e
000000a0: 46f1 1cbd eb36 c13d 0613 29bd 0025 0c3f
000000b0: e3d7 9fbd c53d e2bd 599c 093e 404f aa3e
000000c0: 803c 9a3c 8970 23bd 5405 abbe 8b6b 763e
000000d0: 682a 66be ebf6 113e 2e90 c53e 37f7 ed3e
000000e0: af4c 053f 73e4 863e 5996 373e 7506 823d
000000f0: f7dd 723e 2acb 6e3d 8ff8 903c 0e9a 6d3e
00000100: 1ebb 273e e892 a53e ef65 bd3e 91a5 10be
00000110: 8a2b 15be 9029 b2bd 2661 e43e 1ad7 24be
00000120: 47d3 38be dc12 bd3e 6f74 cfbe 5818 17bd
00000130: 2d39 debe f94c a73c 34f9 87be 8368 45bd
00000140: 9abe 45be 86a6 703e 8e4a 863e 70ca a2be
00000150: 28f6 9f3e b75e 673c e90b 0fbe d784 21be
00000160: e73a 003e 3e92 c93d 0787 abbe 68da 303e
00000170: 3937 43ba fc4a 7fbe d04b cdbe ddc0 0dbf
00000180: 8593 473e 301c dd3d 3a69 a63e 41bc 39be
00000190: 4e73 50bd f281 9cbd fe18 e7bd d478 0abe
000001a0: 8ca9 713d def2 6cbd 3f7e 99bd f460 743e
000001b0: bdb7 4dbe 96f9 523e e48a 80be 73e5 93be
000001c0: c02b 193e 5acf 9d3c 8d59 5f3e dc17 72be
000001d0: f366 d1bd 66cd f53e e4a7 e7bd 5583 b2be
000001e0: 29d9 efbe e78c a8be c1d9 a23e 655d 24bd
000001f0: a9cd 953d 14ae f1bc b851 3f3e 5fb5 37be
00000200: 701c 113f d98f 9abd 4f8b 153d ce4c afbe
00000210: b83e 973d d844 85bc bb95 33bf 0a05 973d
00000220: 54ed f23d cfc1 7ebd dffa 5c3e 4fb2 093c
00000230: 99c0 d8bd e734 cdbd fcf8 a83e 7600 bb3d
00000240: 38c3 fa3d 883e ab3e fc2a ee3e f398 723c
00000250: 7059 f8bd 1fca 85be a9d0 e2bc a375 313e
00000260: f032 38be 92e5 c7bd bf86 eb3b 2659 893e
00000270: 4c03 713e 47d1 813d 91a4 1abf af4c 94be
00000280: 376c a23e d876 843e c8d2 573e 5b5f 83be
00000290: 6626 7a3b f1f6 163f a30a 8dbe 4722 eb3c
000002a0: bc49 02bf 45e1 abbe ace1 4bbe 0222 0bbd
000002b0: 6e69 89be fcdd 88bd 0c4d 25bd 001b 4fbe
000002c0: a3db af3d fa84 1c3e 03de 78bd 390e 123f
000002d0: 2174 48bc 4711 8abe b174 f4bd c4a2 f9be
000002e0: e25e 49be 0567 a03d 06b8 2f3f 4563 0fbe
000002f0: 638c 4cbd 4c48 0fbf 599f 093e f813 9ebe
00000300: 8026 38be f44f e1bd ddb6 fb3e 0108 88bc
00000310: 43eb 36be 78b7 d2be ea27 19be f9eb ea3c
00000320: ed67 f5bc b1a9 aabe cc12 a6bb aebb 29bd
00000330: 349e 6abe a898 97be 4198 a3bc eddb 61be
00000340: c4b5 1bbd 454a 72be 0fc4 233e 803f babe
00000350: c881 513d 0d9f adbd f6fb 89bd c9a5 e53e
00000360: 7dbb aa3c dfe3 8fbd 4a83 e4bd 8edc a23e
00000370: 12d4 85bc 9926 603e 4847 98bd 89d4 22be
00000380: 5b6f 383e e1d0 f9bd 8bd7 65be 2739 df3e
00000390: af13 ff3e e23e 1bbc 4e0c 893e 8c5a 803e
000003a0: 6508 a73e a77c 893e e3db 093e a5ed 8f3e
000003b0: bf4c 243e aaf2 b53d acc5 5ebe 166e c6be
000003c0: 121b 8c3e 7694 953e 65ae 10be 003b 5abe
000003d0: 48fb 823d cce9 0d3e 8e20 7c3e c14c 833e
000003e0: 0083 413e 0e24 ed3d e6e7 25bf 7bed cdbd
000003f0: 9b55 9c3e f13f 723d c038 013e 8761 c63e

encoder.blks.block0.attention.W_k.weight f4 [32, 32]
0.23108132 -0.29500315 0.44003773 -0.5511861 0.09871027 -0.25043643 -0.23725195 0.29774296
-0.09328846 -0.12995724 0.4363646 -0.40542784 -0.46562704 0.19757111 0.42915487 0.04072407
-0.32579765 -0.004669119 0.13296317 -0.046114895 -0.010829495 -0.34366015 0.4447574 0.13459784
0.28916454 -0.18021028 0.05287164 -0.56289893 0.0048897625 -0.3109845 0.33652446 -0.1760196
-0.3495809 0.18328811 0.15235195 0.4082448 0.55792016 0.2507459 0.59951884 -0.47875968
-0.034221392 -0.07629381 0.03221861 -0.13014098 -0.0933247 -0.0711351 -0.13820489 0.18699063
-0.18802889 -0.31132418 0.02920285 0.05172084 -0.06455392 -0.11545467 -0.37712008 -0.3976353
0.0009267639 -0.00441439 -0.08715343 -0.09626197 0.24732205 0.025725778 -0.37491968 -0.19808306
0.24689959 0.15103571 -0.019328227 0.16460161 -0.19850947 0.47637755 -0.6103934 0.08811472
0.057503983 0.22342287 0.2667946 0.05302244 -0.08869483 -0.11668231 0.008973415 -0.36248147
0.25941604 -0.06817296 -0.41870573 -0.40342155 -0.21942012 0.31315485 0.46224573 0.16550082
0.060585614 -0.09768824 -0.19377121 0.012620682 -0.15923359 0.035718363 0.1455635 0.25469688
0.3038234 -0.1026263 0.3615734 -0.2452913 0.096849695 -0.1344181 -0.5306661 0.07717149
-0.16037375 -0.189396 0.26266205 0.027527327 -0.1385552 0.09612493 -0.009709811 -0.23176366
-0.29074362 0.2474804 -0.094358034 0.1827079 0.063580975 0.22055247 -0.12962455 0.12027291
0.32546505 0.2621121 0.12008106 -0.11084309 0.1741872 -0.23552632 0.23692505 0.15589601
-0.014099103 0.2615451 -0.114447035 0.2091665 -0.0017798827 -0.09402621 0.25482625 -0.28073564
-0.24187636 -0.535279 -0.21416134 0.1804469 0.27738452 0.20841205 -0.26522067 -0.36914188
-0.14076373 -0.24301009 -0.26037377 0.25894627 -0.35380027 0.13524185 -0.024015669 0.4303853
-0.34135294 -0.021516837 0.11580602 -0.103654645 -0.12154851 0.13794462 0.065924354 0.4274628
-0.16891095 -0.5711799 0.37561908 -0.16337854 -0.042766307 -0.22951314 -0.6039678 -0.08646329
0.0834736 -0.1330938 -0.08373214 0.75436264 -0.023258865 0.071340136 0.1544522 0.071761385
0.3375819 -0.040180594 -0.017175004 0.14110953 0.057693135 0.34533373 -0.2075396 0.25559548
-0.34385931 0.37113866 -0.40044868 0.0017149913 -0.2307358 0.030186951 -0.16139324 0.078506574
-0.044449206 0.2609556 0.05142919 0.12271624 -0.38610265 0.2869231 0.052230544 -0.11263241
0.12895218 -0.21576416 0.017313303 0.14216553 -0.26328436 0.48493895 -0.1175257 0.36215183
0.19277973 0.01193935 0.008782341 -0.10733801 -0.1446131 0.32228965 0.29662386 -0.011744517
-0.08335905 -0.25917724 0.63236415 0.28625384 0.3160654 0.1453869 -0.050134618 -0.0043834434
-0.24284235 0.20965233 0.1135088 -0.033483822 0.6598927 0.20706496 0.4438771 0.034893498
0.35630974 0.3203017 -0.14041595 -0.31250107 -0.034414165 0.033364423 -0.31735063 -0.2379328
-0.33138543 -0.10155417 0.1287592 0.11044445 0.1375854 -0.2769756 0.24756968 -0.075935066
0.50550586 -0.556821 -0.103325285 -0.16997525 0.1196892 -0.1497333 0.046527322 -0.5170603
00000000: 95a0 6c3e a70a 97be a04c e13e 881a 0dbf
00000010: 9c28 ca3d 3439 80be 2df2 72be c471 983e
00000020: 050e bfbd 8313 05be 2e6b df3e 3d94 cfbe
00000030: ab66 eebe 1550 4a3e 30ba db3e 48ce 263d
00000040: f3ce a6be 69ff 98bb 7f27 083e f9e2 3cbd
00000050: 326e 31bc 39f4 afbe 3eb7 e33e 04d4 093e
00000060: 600d 943e 0b89 38be ef8f 583d 251a 10bf
00000070: 4d3a a03b 5c39 9fbe ef4c ac3e 7b3e 34be
00000080: 45fc b2be e1af 3b3e 2602 1c3e 7605 d13e
00000090: dbd3 0e3f c461 803e 117a 193f fd1f f5be
000000a0: bb2b 0cbd ee3f 9cbd a9f7 033d ad43 05be
000000b0: 0521 bfbd 48af 91bd 9585 0dbe 797a 3f3e
000000c0: a58a 40be e265 9fbe d13a ef3c 3bd9 533d
000000d0: d834 84bd 7f73 ecbd e215 c1be db96 cbbe
000000e0: 13f2 723a 96a6 90bb 7f7d b2bd ff24 c5bd
000000f0: fe41 7d3e debe d23c 79f5 bfbe 49d6 4abe
00000100: 3fd3 7c3e 1ba9 1a3e 3b56 9ebc 538d 283e
00000110: 1146 4bbe c2e7 f33e be42 1cbf 7e75 b43d
00000120: 4c89 6b3d f7c8 643e 4d99 883e 0f2e 593d
00000130: a3a5 b5bd 23f7 eebd 3b05 133c 2c97 b9be
00000140: 2ed2 843e 449e 8bbd 9960 d6be 458d cebe
00000150: abaf 60be d555 a03e 79ab ec3e 0c79 293e
00000160: 9f28 783d c610 c8bd f66b 46be fac6 4e3c
00000170: 210e 23be 6b4d 123d 990e 153e a167 823e
00000180: be8e 9b3e bd2d d2bd 2620 b93e a42d 7bbe
00000190: 2259 c63d e6a4 09be bcd9 07bf 160c 9e3d
000001a0: 0439 24be 06f1 41be a47b 863e fd80 e13c
000001b0: 6ae1 0dbe 26dd c43d e615 1fbc 7453 6dbe
000001c0: 59dc 94be 816b 7d3e c93e c1bd c817 3b3e
000001d0: be36 823d 82d8 613e 4cbc 04be a551 f63d
000001e0: 5ba3 a63e 8f33 863e 0fed f53d b401 e3bd
000001f0: 215e 323e d02d 71be 7b9c 723e 34a3 1f3e
00000200: edff 66bc 3de9 853e 3563 eabd be2f 563e
00000210: f44a e9ba d090 c0bd 9678 823e 95bc 8fbe
00000220: 70ae 77be 0b08 09bf 1c4d 5bbe 12c7 383e
00000230: 5805 8e3e f869 553e 01cb 87be 2a00 bdbe
00000240: 5e24 10be a3d7 78be b64f 85be 9b94 843e
00000250: 4f25 b5be d77c 0a3e 82bc c4bc 765b dc3e
00000260: d0c5 aebe 1444 b0bc b52b ed3d e348 d4bd
00000270: 6dee f8bd 5b41 0d3e 5903 873d 67dc da3e
00000280: fef6 2cbe d938 12bf 2551 c03e b44c 27be
00000290: b92b 2fbd 7e05 6bbe a29d 1abf aa13 b1bd
000002a0: 35f4 aa3d be49 08be c27b abbd e91d 413f
000002b0: 6089 bebc c71a 923d b828 1e3e a2f7 923d
000002c0: 89d7 ac3e 6894 24bd 98b2 8cbc 047f 103e
000002d0: a34f 6c3d 95cf b03e 4385 54be 69dd 823e
000002e0: 540e b0be e305 be3e 9c07 cdbe 8fc9 e03a
000002f0: 0146 6cbe a04a f73c 4544 25be 0ec8 a03d
00000300: 5f10 36bd f99b 853e 6aa7 523d a752 fb3d
00000310: 3faf c5be 96e7 923e b2ef 553d d2ab e6bd
00000320: 0a0c 043e 48f1 5cbe a1d4 8d3c d793 113e
00000330: 35cd 86be eb49 f83e 50b1 f0bd f76b b93e
00000340: 0d68 453e 439d 433c cfe3 0f3c 08d4 dbbd
00000350: 7515 14be 2603 a53e 15df 973e 136c 40bc
00000360: 26b8 aabd e1b2 84be 9ee2 213f dd8f 923e
00000370: 53d3 a13e 4ee0 143e f559 4dbd fda2 8fbb
00000380: aaab 78be 1aaf 563e 4d77 e83d 5526 09bd
00000390: baee 283f d608 543e dc43 e33e 7cec 0e3d
000003a0: 3b6e b63e 96fe a33e 33c9 0fbe 2400 a0be
000003b0: def5 0cbd 22a9 083d c87b a2be a8a4 73be
000003c0: 5aab a9be a2fb cfbd 74d9 033e b330 e23d
000003d0: 30e3 0c3e bfcf 8dbe e882 7d3e d883 9bbd
000003e0: d568 013f d28b 0ebf 359c d3bd fe0d 2ebe
000003f0: 9c1f f53d b053 19be 6f93 3e3d 105e 04bf

encoder.blks.block0.attention.W_v.weight f4 [32, 32]
0.19608817 -0.09624735 0.021171847 0.15703121 0.08214387 0.15466528 -0.12088981 -0.15931068
0.011510363 0.08298338 0.008176514 -0.090030156 0.04482448 0.06688093 -0.12432245 -0.1807653
-0.053354345 -0.097779855 -0.12108031 -0.03334025 -0.0072556636 -0.067355216 -0.17805447 -0.04932695
0.0217325 -0.0062548295 0.23626496 0.12994371 0.061122477 -0.096864834 0.054199554 0.17185038
0.056808148 -0.1036405 0.008509481 0.02723758 -0.055841807 0.10475967 -0.053278938 0.03103206
0.010835571 -0.07117444 0.18405953 -0.060852174 0.13252655 0.16748749 -0.09786182 0.09551737
-0.24685761 0.05024479 0.08553965 -0.039042365 -0.08450763 -0.0075435583 0.1824889 0.24160512
-0.05394134 0.07598569 -0.083276056 0.030733503 -0.16824478 -0.0075684125 0.022120517 0.021965494
0.029844105 0.08153801 0.05681716 0.17657532 0.011391172 0.026720123 -0.19059403 -0.12353991
0.029423803 -0.057872068 -0.07731422 -0.061310902 -0.08673383 -0.061909843 0.19586791 -0.17042522
-0.038598996 -0.033337224 0.084342584 0.0392552 0.07908656 0.037506238 0.18571442 -0.033615794
0.021760603 -0.06205331 -0.115797125 -0.009464035 -0.0023017789 -0.0037269595 0.04694659 -0.02894367
-0.04011913 0.06913704 -0.06922332 -0.14665811 -0.0114558125 -0.0055971458 -0.0026855129 0.26595297
0.016837722 0.17947909 -0.12796114 -0.03270362 0.11063408 -0.0585424 0.17241086 0.20255955
0.1311135 -0.011457644 0.034453947 0.065648854 0.028701881 -0.0031300085 0.2222882 0.04055831
-0.006231668 0.14953472 0.06882892 0.0343826 -0.004710645 0.19468535 -0.13069646 0.12316109
0.0017739894 -0.05368151 0.08003407 0.019780204 0.026295459 -0.012157458 0.018401502 0.0736547
-0.027563924 -0.0023138432 -0.19881259 -0.03923712 0.050561488 -0.0011040249 -0.013634999 0.038552787
-0.051460963 0.11132168 0.020778403 0.07868309 0.0011609375 0.044518594 0.023598878 0.009713521
0.047256213 -0.11015445 0.0936602 0.3054382 0.19308819 0.020220485 0.09232729 0.0009385417
0.100200415 -0.016584618 0.16363569 0.06900991 0.15657003 -0.06318363 0.12434893 0.24288668
-0.24110362 -0.1200964 0.14445011 0.06974937 -0.13375302 0.12369435 0.044862747 -0.13126001
-0.12969808 -0.046621114 -0.0042132954 -0.082649484 0.14988439 0.12687358 -0.06459845 0.009422086
0.08947682 0.05562689 0.056455333 -0.08322325 -0.02557845 0.22563484 0.10273274 -0.047888324
-0.18206704 0.1673294 0.039316628 0.1036717 0.13112003 0.02340064 -0.13345873 -0.16449131
0.062231313 0.09438936 0.16230391 0.13436896 0.058909025 0.07714267 0.040073168 0.15244378
-0.098778576 0.057341993 0.08453653 -0.03992435 -0.081750855 -0.072769806 -0.066079594 -0.0039869957
-0.0040862705 -0.16259815 0.06580761 -0.12351799 0.10570861 -0.04370145 -0.007277299 0.08949599
-0.033230074 -0.005189451 -0.12725264 0.017575916 0.055315148 -0.05934053 -0.14511676 -0.03917117
-0.025612894 -0.045639418 0.1270213 0.20647417 0.03991745 -0.12486566 -0.0067095254 -0.11401223
0.12571777 -0.032463774 0.0029056529 0.06496829 -0.25297564 -0.0051515666 -0.04328485 0.087657854
-0.051373098 -0.011655783 0.22401911 -0.14166206 -0.05040447 -0.069191694 -0.021705085 0.08719824
00000000: 56cb 483e 551d c5bd 9570 ad3c cacc 203e
00000010: 0c3b a83d 9360 1e3e 1495 f7bd 5722 23be
00000020: f695 3c3c 31f3 a93d c9f6 053c bb61 b8bd
00000030: e099 373d def8 883d c59c febd 8a1a 39be
00000040: 168a 5abd ce40 c8bd f4f8 f7bd c98f 08bd
00000050: ebc0 edbb 88f1 89bd e953 36be 0e0b 4abd
00000060: 5b08 b23c 50f5 ccbb 71ef 713e f70f 053e
00000070: 905b 7a3d 1261 c6bd 5a00 5e3d 8cf9 2f3e
00000080: a9af 683d 7841 d4bd 5a6b 0b3c 5821 df3c
00000090: 61ba 64bd 3d8c d63d 043b 5abd f236 fe3c
000000a0: ae87 313c e8c3 91bd 1a7a 3c3e 2140 79bd
000000b0: 0ab5 073e d781 2b3e c76b c8bd 9c9e c33d
000000c0: 3ec8 7cbe 7bcd 4d3d 692f af3d e3ea 1fbd
000000d0: 5612 adbd f42f f7bb 5fde 3a3e 5567 773e
000000e0: 98f1 5cbd 639e 9b3d a38c aabd d4c4 fb3c
000000f0: 5c48 2cbe 7200 f8bb 1636 b53c fbf0 b33c
00000100: a07b f43c 66fd a63d 1cb9 683d 29d0 343e
00000110: 0aa2 3a3c 29e4 da3c 152b 43be 7e02 fdbd
00000120: 300a f13c 430b 6dbd eb56 9ebd 2421 7bbd
00000130: 82a1 b1bd 2d95 7dbd 9991 483e f383 2ebe
00000140: fb19 1ebd 9d8c 08bd cebb ac3d 10ca 203d
00000150: 22f8 a13d 24a0 193d ec2b 3e3e b7b0 09bd
00000160: 4b43 b23c 9d2b 7ebd 0b27 edbd 0a0f 1bbc
00000170: 71d9 16bb 0140 74bb 114b 403d 471b edbc
00000180: f553 24bd b897 8d3d f5c4 8dbd 8b2d 16be
00000190: 29b1 3bbc 4368 b7bb 6eff 2fbb fd2a 883e
000001a0: 43ef 893c 5ec9 373e 3f08 03be 3bf4 05bd
000001b0: 1f94 e23d 28ca 6fbd 798c 303e c56b 4f3e
000001c0: 9e42 063e d8b8 3bbc 951f 0d3d e872 863d
000001d0: 3520 eb3c d420 4dbb 859f 633e 7820 263d
000001e0: 0533 ccbb a11f 193e 2df6 8c3d c5d4 0c3d
000001f0: c15b 9abb 995b 473e 4bd5 05be e23b fc3d
00000200: 3585 e83a 25e1 5bbd e7e8 a33d 180a a23c
00000210: 9369 d73c 1330 47bc bfbe 963c 46d8 963d
00000220: bdcd e1bc d9a3 17bb 8795 4bbe 1ab7 20bd
00000230: 9019 4f3d eeb4 90ba 5565 5fbc 87e9 1d3d
00000240: bbc8 52bd 9ffc e33d 7837 aa3c 9a24 a13d
00000250: 992a 983a 2159 363d 6f52 c13c 7625 1f3c
00000260: bb8f 413d a898 e1bd ebd0 bf3d 6562 9c3e
00000270: e9b8 453e 6ea5 a53c 1716 bd3d 7808 763a
00000280: e035 cd3d 77dc 87bc 1d90 273e 1155 8d3d
00000290: e553 203e 6b66 81bd a7aa fe3d 49b7 783e
000002a0: dee3 76be 1af5 f5bd bbea 133e c2d8 8e3d
000002b0: 8df6 08be 7753 fd3d 00c2 373d 0669 06be
000002c0: 93cf 04be c8f5 3ebd af0f 8abb 2244 a9bd
000002d0: 4b7b 193e 26eb 013e 314c 84bd 185f 1a3c
000002e0: 9f3f b73d 06d9 633d b53d 673d f470 aabd
000002f0: e689 d1bc d20c 673e 8b65 d23d 8c26 44bd
00000300: c86f 3abe 6658 2b3e 790a 213d d451 d43d
00000310: 5444 063e b3b2 bf3c 68a9 08be 6970 28be
00000320: 43e6 7e3d 354f c13d ff32 263e 0498 093e
00000330: 974a 713d fafc 9d3d c323 243d 391a 1c3e
00000340: 6c4c cabd 70df 6a3d 7d21 ad3d b787 23bd
00000350: fe6c a7bd 5608 95bd bd54 87bd 58a5 82bb
00000360: 1fe6 85bb 2180 26be 24c6 863d 00f7 fcbd
00000370: c17d d83d 4b00 33bd 6976 eebb ac49 b73d
00000380: 421c 08bd 450c aabb 844e 02be 5efb 8f3c
00000390: 2392 623d 0e0f 73bd 7d99 14be f371 20bd
000003a0: 22d2 d1bc 66f0 3abd df11 023e f76d 533e
000003b0: 7b80 233d 91b9 ffbd 94db dbbb 3e7f e9bd
000003c0: 29bc 003e bcf8 04bd c46c 3e3b 180e 853d
000003d0: 0686 81be 79ce a8bb 744b 31bd f685 b33d
000003e0: 996c 52bd e6f7 3ebc 4465 653e dc0f 11be
000003f0: eb74 4ebd 60b4 8dbd ddce b1bc fe94 b23d

encoder.blks.block0.attention.W_o.weight f4 [32, 32]
0.08080807 0.0063241227 0.10506132 0.104693875 -0.08329867 -0.054519374 0.09424875 -0.036718637
0.10103697 -0.069437385 -0.033452738 -0.074891776 -0.08459406 -0.0871627 -0.17475545 0.047372423
-0.04127428 -0.041777845 -0.116440035 -0.03595759 -0.08806962 -0.038267884 0.015536595 0.15994349
-0.011758161 0.02012984 -0.044637326 0.11872014 0.23580313 -0.31297576 -0.07776187 0.17610064
-0.091610506 -0.14541318 0.03411627 0.14016135 0.008324629 0.004103089 -0.03277734 -0.114465125
-0.08670763 -0.0049861697 0.032236774 0.15823068 0.042270154 -0.053118177 -0.03064072 -0.06984657
-0.14441456 0.08991366 -0.045797892 0.044026434 -0.106827706 -0.0022746345 -0.06608573 -0.006897487
0.033199124 0.062262177 0.025395606 0.008017843 0.019393714 0.06569165 -0.04528798 0.2656961
-0.05824065 -0.17148803 -0.004831445 -0.06176452 -0.013998108 -0.07501942 -0.0472525 0.13393085
-0.03598664 0.054411426 0.07635656 0.062221102 -0.099021755 -0.02037209 0.19435169 -0.0862477
0.11595444 0.14758706 -0.038294848 0.039615702 0.15770039 -0.14765032 -0.16835265 0.05979506
-0.00013902356 -0.00011550486 -0.20082064 -0.005504557 -0.068940215 -0.13241957 0.019660123 -0.1531345
-0.11550108 -0.010277975 -0.109595664 0.117864594 0.0059503764 0.009180472 -0.18718877 -0.016743347
-0.07122488 0.14048354 -0.016341427 -0.07385341 0.005903259 0.05411922 0.0026912673 -0.16271098
0.20270303 0.074440464 0.12330162 0.010814227 0.025378326 -0.1852376 -0.030811273 0.0768743
0.0035900483 0.19172852 -0.17798351 0.0046050684 -0.006462623 0.12879539 -0.055457775 -0.16155386
-0.0700296 -0.109226696 -0.14653043 -0.12903431 -0.03043295 0.06968142 0.07676544 -0.0019186325
0.13411075 -0.004928501 0.010667836 0.031605344 -0.08315702 0.1271428 -0.16442817 -0.051405653
0.09645491 0.10596132 -0.04627825 -0.11049382 0.020965336 -0.0015007661 -0.014870042 0.08453431
0.007164096 0.062326092 -0.07133523 -0.1461333 0.06750735 0.039168205 -0.1556848 -0.03439158
-0.100409545 -0.25275233 -0.093117185 0.06673513 -0.067266196 -0.034926653 0.09793357 0.046873394
0.09050792 -0.14129588 -0.08468388 -0.101148844 -0.011828567 -0.20613407 -0.022250334 -0.02686403
0.13848816 -0.074822776 0.2551191 0.0997871 -0.15129794 0.09058144 0.054343525 -0.08961959
-0.09367353 -0.112662196 -0.021062145 -0.04473346 -0.12912016 0.09936883 -0.11826053 0.10769808
0.09042569 -0.050925914 -0.015038289 -0.025648355 0.028959101 0.105145566 -0.09833244 -0.08432093
0.29790685 -0.15660241 0.11931636 0.10372848 0.21382526 0.045100432 0.060352437 0.040561818
-0.08906267 -0.038703337 0.1045379 -0.07444714 -0.033029474 0.0070648803 0.016625304 0.027486809
-0.059435494 -0.20068888 -0.1501068 0.06969214 -0.10353717 -0.066043206 -0.17924707 -0.023326397
0.08620721 -0.050089423 -0.12866655 -0.05510924 -0.026908996 0.13079956 0.025557883 -0.052081168
0.11838836 0.05576426 -0.0025994843 -0.084826685 -0.056986146 -0.13339616 0.18998897 -0.13194314
-0.10185727 -0.05441676 -0.033584572 0.010550104 0.019909477 -0.05862398 0.096034676 -0.15908676
0.19869655 0.019739397 -0.13111141 -0.071341485 0.09799306 0.1001326 -0.05008538 -0.052446947
00000000: b47e a53d 963a cf3b 642a d73d be69 d63d
00000010: 7e98 aabd b54f 5fbd 7d05 c13d 4866 16bd
00000020: 79ec ce3d 3035 8ebd bd05 09bd dc60 99bd
00000030: a73f adbd 5c82 b2bd 18f3 32be 9609 423d
00000040: 380f 29bd 3f1f 2bbd 1d78 eebd 4448 13bd
00000050: d85d b4bd c9be 1cbd 348d 7e3c 3ac8 233e
00000060: 4da5 40bc 56e7 a43c a1d5 36bd 8b23 f33d
00000070: 6076 713e 5c3e a0be 9e41 9fbd ba53 343e
00000080: 4a9e bbbd 31e7 14be 80bd 0b3d 7586 0f3e
00000090: 0664 083c 3573 863b 8841 06bd b16c eabd
000000a0: c593 b1bd 0663 a3bb b50a 043d 3907 223e
000000b0: 7823 2d3d 7292 59bd 3f02 fbbc b80b 8fbd
000000c0: 69e1 13be a724 b83d 9296 3bbd 1055 343d
000000d0: 7cc8 dabd 0912 15bb f557 87bd 5104 e2bb
000000e0: cefb 073d a006 7f3d 720a d03c 455d 033c
000000f0: 91df 9e3c 5889 863d e47f 39bd 5209 883e
00000100: bf8d 6ebd 8f9a 2fbe 1951 9ebb cbfc 7cbd
00000110: 5258 65bc c8a3 99bd d68b 41bd 2b25 093e
00000120: ba66 13bd 84de 5e3d d460 9c3d 8edb 7e3d
00000130: ebcb cabd 5fe3 a6bc 2104 473e a2a2 b0bd
00000140: 8579 ed3d 1021 173e 0fdb 1cbd 1344 223d
00000150: 367c 213e a531 17be a364 2cbe aaeb 743d
00000160: dac6 11b9 333b f2b8 eda3 4dbe 925f b4bb
00000170: 8730 8dbd ff98 07be 440e a13c 4acf 1cbe
00000180: d58b ecbd f464 28bc b173 e0bd fe62 f13d
00000190: 60fb c23b b169 163c 6aae 3fbe 5829 89bc
000001a0: 5ade 91bd ebda 0f3e 75de 85bc 7540 97bd
000001b0: 2070 c13b 1dac 5d3d f95f 303b b59d 26be
000001c0: 6291 4f3e 3e74 983d 8f85 fc3d 282e 313c
000001d0: 35e6 cf3c edae 3dbe ec67 fcbc 4670 9d3d
000001e0: 0447 6b3b 7b54 443e 4f41 36be 1de6 963b
000001f0: 69c4 d3bb f0e2 033e b127 63bd 606e 25be
00000200: ae6b 8fbd 3fb2 dfbd 130c 16be 9221 04be
00000210: 864e f9bc 22b5 8e3d 3337 9d3d a07a fbba
00000220: 5454 093e 437f a1bb 26c8 2e3c 9b74 013d
00000230: 3a4e aabd b931 023e dc5f 28be bc8e 52bd
00000240: 278a c53d 4002 d93d 438e 3dbd 954a e2bd
00000250: 7fbf ab3c 5bb5 c4ba 7aa1 73bc 5320 ad3d
00000260: cbc0 ea3b a549 7f3d 3418 92bd f8a3 15be
00000270: 4b41 8a3d d76e 203d d66b 1fbe 2fde 0cbd
00000280: 85a3 cdbd c168 81be 39b4 bebd 6eac 883d
00000290: dcc2 89bd 400f 0fbd 6591 c83d 51fe 3f3d
000002a0: 375c b93d deaf 10be be6e adbd 2027 cfbd
000002b0: 9bcc 41bc cf14 53be 5546 b6bc f411 dcbc
000002c0: d7cf 0d3e af3c 99bd f89e 823e 2e5d cc3d
000002d0: d9ed 1abe c382 b93d 5197 5e3d 7a8a b7bd
000002e0: e8d7 bfbd 70bb e6bd 858a acbc 6f3a 37bd
000002f0: 1338 04be e381 cb3d 9432 f2bd d090 dc3d
00000300: 1b31 b93d b197 50bd 2863 76bc 801c d2bc
00000310: a33b ed3c 8f56 d73d 8562 c9bd 74b0 acbd
00000320: 3f87 983e 625c 20be 235c f43d 996f d43d
00000330: 02f5 5a3e 3bbb 383d 1e34 773d 2624 263d
00000340: 7d66 b6bd 6487 1ebd f717 d63d be77 98bd
00000350: ea49 07bd 8380 e73b ca31 883c 042c e13c
00000360: a272 73bd 6381 4dbe 99b5 19be c1ba 8e3d
00000370: 4c0b d4bd a941 87bd 8b8c 37be 0017 bfbc
00000380: 688d b03d 912a 4dbd 2ac1 03be 3aba 61bd
00000390: 4170 dcbc 52f0 053e c45e d13c 1053 55bd
000003a0: 9975 f23d 1169 643d 1c5c 2abb 9db9 adbd
000003b0: 4e6a 69bd 0199 08be 788c 423e 1a1c 07be
000003c0: 8b9a d0bd 1ce4 5ebd fa8f 09bd 58da 2c3c
000003d0: 3319 a33c b31f 70bd d4ad c43d a4e7 22be
000003e0: 1c77 4b3e 84b4 a13c 1242 06be 7c1b 92bd
000003f0: 96b0 c83d 5212 cd3d 5426 4dbd 9cd2 56bd

encoder.blks.block0.addnorm1.ln.weight f4 [32]
0.9924445 1.135156 1.0365555 0.98759407 1.0786011 1.0439677 1.037839 1.1410425
0.99340206 0.92057544 0.94876355 0.9596145 1.0192963 1.0333661 0.98017055 0.9592817
1.0007085 0.97171426 0.8956312 1.135214 1.0076624 1.0925467 0.9815514 0.93248665
0.93188053 0.95034605 0.88659036 0.93695855 0.97860765 0.9076876 0.9210357 0.9148663
00000000: d810 7e3f cb4c 913f daad 843f f7d2 7c3f
00000010: 9a0f 8a3f bca0 853f e9d7 843f ae0d 923f
00000020: 994f 7e3f d5aa 6b3f 2be2 723f 4ca9 753f
00000030: 4d78 823f 5745 843f 75ec 7a3f 7c93 753f
00000040: 3717 803f 44c2 783f 1648 653f b14e 913f
00000050: 15fb 803f 92d8 8b3f f446 7b3f 72b7 6e3f
00000060: b98f 6e3f e149 733f 96f7 623f 84dc 6f3f
00000070: 0886 7a3f 375e 683f ffc8 6b3f ae34 6a3f

encoder.blks.block0.addnorm1.ln.bias f4 [32]
-0.15180182 -0.36422366 -0.14392993 -0.12515481 0.27221352 0.19225572 0.05064636 -0.040157527
0.37030756 -0.26019314 -0.0443587 0.12849414 -0.2917192 0.050625045 -0.1421473 0.1541517
-0.4571547 -0.050447967 0.42800513 -0.20093061 0.431508 0.57750666 0.09021028 -0.12384736
-0.33701247 0.055345625 0.13037302 -0.23139404 -0.25054938 0.12806773 -0.23074707 0.22965614
00000000: f071 1bbe 867b babe 5e62 13be 9528 00be
00000010: 925f 8b3e afde 443e 8f72 4f3d 387c 24bd
00000020: f498 bd3e 0938 85be 78b1 35bd f893 033e
00000030: 385c 95be 355c 4f3d 108f 11be f1d9 1d3e
00000040: 2e10 eabe 87a2 4ebd 7d23 db3e c1c0 4dbe
00000050: 9eee dc3e 7ad7 133f 2bc0 b83d afa3 fdbd
00000060: e68c acbe 18b2 623d 8180 053e 8ff2 6cbe
00000070: 0248 80be 3024 033e f648 6cbe fb2a 6b3e

encoder.blks.block0.ffn.dense1.weight f4 [64, 32]
0.07271048 -0.075215265 -0.13038595 0.17584407 -0.09729201 -0.010037246 -0.027797308 0.09195437
0.06966 0.54968274 -0.220831 0.18524432 -0.21835539 0.06679259 -0.012311382 -0.013017422
0.13177304 -0.09385715 -0.08676343 -0.14756735 0.041051485 -0.64856327 0.14257635 -0.24196033
0.31026015 0.33737686 0.18097875 -0.22347501 0.43632308 0.05531904 -0.061496858 -0.065722324
0.23590527 0.07362702 0.42656934 -0.4176267 -0.1543148 -0.3696174 -0.15551177 0.0923583
0.20300901 -0.1483221 -0.031138789 -0.1251517 0.10513629 -0.23677388 -0.09462593 -0.5924966
0.24683852 0.24952665 0.036060303 0.22076638 -0.19005616 -0.36167738 -0.26585484 0.24979374
-0.025812276 -0.09927951 0.1327807 -0.23106542 0.12382789 -0.11009545 0.19675693 0.2612349
0.1010645 0.48911262 0.22865042 0.1398327 0.3331175 0.07234936 0.21638921 0.1787812
-0.18033086 0.19309902 0.07541936 0.28371015 0.394023 0.23848194 -0.071651444 0.12183349
0.06963689 -0.26650682 -0.07060451 -0.23915718 -0.33101326 -0.08812887 -0.17897725 0.21801028
0.31966093 0.35906795 -0.20970559 -0.015295461 -0.22856405 0.10300162 0.097848676 -0.36393347
0.20441352 0.28389016 -0.32579997 -0.059199013 -0.12430893 -0.38662574 -0.2079495 0.11381279
0.066569746 0.2787747 -0.2983025 0.053851284 0.3158498 -0.099186696 0.2694944 0.34520394
-0.041269913 0.17551899 0.35811517 -0.05378268 -0.032048393 0.14167996 -0.22065523 0.22952178
-0.05137743 -0.031041984 -0.1760024 -0.18919235 -0.09179131 -0.44545898 0.075620584 -0.48860177
0.34383035 0.09502149 0.47043884 -0.09295445 -0.02494306 0.05999109 0.27095956 -0.05806311
-0.2234481 0.079541035 0.28691936 -0.21416105 -0.059626043 0.3493009 -0.45597956 -0.4307288
0.051561847 0.1054025 0.036858458 -0.22729632 -0.30683678 -0.060592633 0.26514673 0.3133499
0.64873815 -0.07300089 -0.32652125 0.25798225 -0.28910658 0.0987514 -0.22027747 0.14240173
0.3138001 -0.1962864 0.42957544 0.04833865 -0.20967336 -0.09890957 0.010790736 0.0870345
-0.0076395227 0.19643256 0.10207249 -0.58977896 -0.41914663 0.18014176 0.5855168 0.28898615
0.1473386 0.46889752 0.011227567 -0.1571111 0.109945916 -0.095559865 -0.5301702 0.040806185
0.20686674 -0.21133836 -0.39660525 -0.06337151 0.34010643 -0.35184214 0.0009879561 -0.41121784
0.39079082 -0.0067242174 -0.2618208 0.0119454935 -0.25059748 -0.32045493 0.066770904 -0.02628675
-0.10719083 -0.10484704 0.1845179 -0.3807895 0.18148567 -0.044924483 -0.14233945 -0.0015332367
0.085356146 0.082982354 -0.24011306 0.10812031 -0.21969362 -0.25692806 -0.47473025 0.06245888
-0.15330788 -0.24443634 -0.20093232 -0.4071356 0.20341942 0.05588714 0.08094522 0.4686761
-0.002825334 0.3513868 0.10752624 -0.081206776 -0.37436628 -0.2525594 0.2391398 -0.18481486
-0.5809509 0.005151775 -0.46482992 0.21572262 0.29971316 -0.027911806 0.17343017 0.3154549
0.51563305 0.21461172 -0.007818373 0.1482014 -0.022253064 -0.10479034 -0.096415855 0.34301674
0.12205713 0.29278526 -0.3544929 -0.23779224 0.27943248 -0.4167902 0.1729772 -0.17045966
00000000: 3be9 943d 760a 9abd e583 05be 7810 343e
00000010: 0941 c7bd 4373 24bc 2eb7 e3bc 9352 bc3d
00000020: e7a9 8e3d 02b8 0c3f 8621 62be b0b0 3d3e
00000030: 8e98 5fbe 8eca 883d aeb5 49bc 0647 55bc
00000040: 83ef 063e 2d38 c0bd 06b1 b1bd e51b 17be
00000050: 9a25 283d 3e08 26bf 89ff 113e 73c4 77be
00000060: 6bda 9e3e a9bc ac3e 7e52 393e a2d6 64be
00000070: bd65 df3e 3896 623d 21e4 7bbd 6d99 86bd
00000080: 2791 713e c3c9 963d 4c67 da3e 2bd3 d5be
00000090: b304 1ebe 7e3e bdbe 7a3e 1fbe 5926 bd3d
000000a0: 98e1 4f3e c0e1 17be c616 ffbc c427 00be
000000b0: b251 d73d da74 72be 3dcb c1bd dbad 17bf
000000c0: 3dc3 7c3e ea83 7f3e f8b3 133d 9510 623e
000000d0: 159e 42be c72d b9be 201e 88be eec9 7f3e
000000e0: 4474 d3bc 0e53 cbbd aaf7 073e 6a9c 6cbe
000000f0: 7a99 fd3d b979 e1bd a67a 493e 95c0 853e
00000100: e8fa ce3d f86c fa3e 5623 6a3e 4e30 0f3e
00000110: 618e aa3e e72b 943d 2295 5d3e 6b12 373e
00000120: a7a8 38be c0bb 453e 7775 9a3d 7542 913e
00000130: 62bd c93e 9c34 743e febd 92bd d683 f93d
00000140: c99d 8e3d 9573 88be 1999 90bd 9fe5 74be
00000150: 927a a9be e97c b4bd d045 37be 163e 5f3e
00000160: 99aa a33e c1d7 b73e 10bd 56be d099 7abc
00000170: b20c 6abe 83f2 d23d e364 c83d 7d55 babe
00000180: c751 513e 0d5a 913e 41cf a6be aa7a 72bd
00000190: ae95 febd cff3 c5be b7f0 54be ae16 e93d
000001a0: b855 883d 8fbb 8e3e 1bbb 98be 2a93 5c3d
000001b0: 11b7 a13e 6522 cbbd 2cfb 893e 92be b03e
000001c0: a40a 29bd 40bb 333e df5a b73e 3a4b 5cbd
000001d0: 2d45 03bd 8d14 113e 72f3 61be c207 6b3e
000001e0: 2471 52bd c24b febc f939 34be a4bb 41be
000001f0: 15fd bbbd 3313 e4be f7de 9a3d 032a fabe
00000200: 880a b03e a09a c23d 5cdd f03e e75e bebd
00000210: 6355 ccbc 38b9 753d 36bb 8a3e 95d3 6dbd
00000220: 94cf 64be 69e6 a23d 18e7 923e 094d 5bbe
00000230: 703a 74bd 91d7 b23e 2776 e9be 7c88 dcbe
00000240: 8432 533d 44dd d73d e5f8 163d 5ec0 68be
00000250: b619 9dbe fb2f 78bd 50c1 873e 666f a03e
00000260: b413 263f 7e81 95bd cb2d a7be 4016 843e
00000270: c705 94be 2d3e ca3d 6b90 61be c2d1 113e
00000280: 68aa a03e 4dff 48be 50f1 db3e c0fe 453d
00000290: 9db4 56be 1a91 cabd a1cb 303c 253f b23d
000002a0: f654 fabb 9e25 493e 620b d13d c1fb 16bf
000002b0: 639a d6be 1577 383e 6ee4 153f fef5 933e
000002c0: eedf 163e 5613 f03e d4f3 373c bbe1 20be
000002d0: 532b e13d e4b4 c3bd 3cb9 07bf 6324 273d
000002e0: e0d4 533e 1569 58be d80f cbbe ecc8 81bd
000002f0: 6e22 ae3e a724 b4be 4e7e 813a 258b d2be
00000300: bc15 c83e d356 dcbb 600d 86be 08b7 433c
00000310: 504e 80be ab12 a4be 2fbf 883d 4f57 d7bc
00000320: de86 dbbd 0bba d6bd 43f2 3c3e d7f6 c2be
00000330: 61d7 393e bc02 38bd 6fc1 11be e3f6 c8ba
00000340: 34cf ae3d a7f2 a93d 33e0 75be 2e6e dd3d
00000350: 5df7 60be 138c 83be d80f f3be e2d4 7f3d
00000360: befc 1cbe 854d 7abe 34c1 4dbe 1474 d0be
00000370: 2e4d 503e eae9 643d 9cc6 a53d 50f6 ef3e
00000380: 3d29 39bb f8e8 b33e b836 dc3d bd4f a6bd
00000390: f0ac bfbe 774f 81be 10e1 743e 1b40 3dbe
000003a0: 33b9 14bf 39d0 a83b 30fe edbe 64e6 5c3e
000003b0: 0174 993e 4da7 e4bc ae97 313e 4e83 a13e
000003c0: 8700 043f 2dc3 5b3e a218 00bc 1cc2 173e
000003d0: 0f4c b6bc 519c d6bd ad75 c5bd e49f af3e
000003e0: 17f9 f93d f3e7 953e 1880 b5be cf7f 73be
000003f0: c611 8f3e 8665 d5be ef20 313e fa8c 2ebe

encoder.blks.block0.ffn.dense1.bias f4 [64]
-0.3206381 -0.23622869 -0.38254675 -0.27596813 -0.20399173 -0.5964251 -0.18095006 -0.25422877
-0.29557234 -0.20833066 -0.5674071 -0.45330325 -0.3396803 -0.18770716 -0.59264463 -0.32468808
-0.38177687 -0.18272524 -0.46835694 -0.18180867 -0.38780212 -0.054554254 -0.351762 -0.26083907
-0.39674413 -0.54030573 -0.28182074 -0.494009 -0.48148167 -0.44080317 -0.37786585 -0.3806242
-0.45087382 -0.37788007 -0.6313915 -0.06701395 -0.2754711 -0.5245836 -0.55597204 -0.28626883
-0.194703 -0.37073374 -0.08922261 -0.39273858 -0.21599711 -0.325653 -0.093495995 -0.22439955
-0.33045444 -0.40199026 -0.36946088 -0.5853915 -0.23625395 -0.33641264 -0.14347096 -0.5034203
-0.45953366 -0.39618802 -0.19797918 -0.27950788 -0.5087427 -0.6061271 -0.09636716 -0.48034602
00000000: ad2a a4be efe5 71be 2bdd c3be b24b 8dbe
00000010: 35e3 50be 51af 18bf f94a 39be 462a 82be
00000020: 4255 97be a254 55be 9741 11bf 5d17 e8be
00000030: 94ea adbe 4e36 40be 8fb7 17bf 843d a6be
00000040: 4278 c3be 531c 3bbe 7bcc efbe 0d2c 3abe
00000050: 008e c6be 4874 5fbd 261a b4be b38c 85be
00000060: 0c22 cbbe 7a51 0abf cf4a 90be bfee fcbe
00000070: c484 f6be f4b0 e1be a277 c1be 2de1 c2be
00000080: efd8 e6be 7f79 c1be e0a2 21bf 9c3e 89bd
00000090: 8c0a 8dbe 1c4b 06bf 2f54 0ebf d491 92be
000000a0: 3960 47be d0d0 bdbe 58ba b6bd 0815 c9be
000000b0: 592e 5dbe fdbb a6be d47a bfbd ffc8 65be
000000c0: 5331 a9be abd1 cdbe fa29 bdbe 38dc 15bf
000000d0: 8eec 71be 473e acbe 0dea 12be 27e0 00bf
000000e0: ff47 ebbe 28d9 cabe 0ebb 4abe a81b 8fbe
000000f0: f63c 02bf 252b 1bbf 255c c5bd eaef f5be

encoder.blks.block0.ffn.dense2.weight f4 [32, 64]
0.20098811 0.18224677 -0.16003375 -0.2679071 -0.3033127 -0.3345026 0.4630029 -0.4492881
-0.26732865 0.06526896 0.24536513 0.13579072 0.1480722 0.44318637 0.2681926 -0.023859452
0.09554842 0.11415678 0.0720421 0.1484493 0.14406513 -0.27211538 0.11512569 0.096192114
-0.24823661 -0.123581626 0.06967711 0.22281422 -0.20895842 0.39394072 -0.20283028 0.14443602
-0.008684845 0.053170513 -0.20103875 0.2073637 -0.41172644 0.35777444 -0.18978964 0.10736007
0.041168503 0.3197432 0.01906826 0.11492407 0.19948684 -0.18883342 0.1843554 -0.14865226
0.081419356 0.2297545 0.012716674 -0.0138630485 -0.104640886 -0.3633276 0.5866053 -0.12528628
0.3226727 -0.05806094 -0.23633632 -0.039217353 -0.4013711 -0.08696686 0.20977627 -0.108987935
0.121877015 -0.41202062 -0.21415097 0.2969967 -0.121456094 0.29534483 -0.056818362 0.09947295
0.09984477 -0.04093155 -0.07381792 0.43228906 0.0067011514 0.104521565 0.12595648 -0.18244961
0.13160276 -0.15093273 -0.22063003 -0.119397715 0.3915562 -0.113678336 -0.3812 0.24885361
-0.2766631 0.005370059 0.038218215 0.021290883 0.23922129 0.45596763 -0.07955362 0.09647103
-0.22414955 -0.05389974 -0.42377868 -0.13595887 -0.11944713 0.22482295 -0.46984258 -0.2813862
0.28707477 0.2815146 0.017253103 0.13463858 0.05750805 -0.24635132 0.09636032 -0.14402255
0.3500993 0.15532823 -0.28908935 0.0108793145 0.034224927 -0.12255644 0.0151804015 0.11819403
-0.22523282 -0.17207968 -0.027181068 -0.038169846 0.19769683 -0.4055806 0.08475988 -0.1587718
0.22114828 0.17108674 0.13993898 -0.12834133 -0.1599219 -0.31703722 0.0039414405 0.12721954
0.109350815 -0.046127748 -0.14486617 -0.22051662 0.23386079 -0.0043816944 0.16402447 -0.3012564
0.1535923 0.03155765 -0.023429256 0.13059114 -0.028838603 -0.05496534 0.19251733 -0.4434828
0.087516785 0.58077925 -0.2888177 -0.38664556 0.15092087 -0.04201249 -0.34302545 0.02926067
-0.3413223 0.22391887 0.4255554 -0.30096596 0.3386678 0.14263165 -0.088453665 0.06527453
-0.100529395 0.023967326 0.27490196 -0.14234427 -0.4081259 -0.03147863 -0.06050767 0.12004366
0.043845333 0.008057772 0.08518783 0.07815945 0.04834731 0.25964186 0.25941783 -0.028992368
0.10369287 -0.041568305 0.068311244 -0.06713935 -0.047906414 0.12645404 -0.088960655 -0.2228102
-0.09814835 0.05995226 0.40455744 0.4324148 -0.0037337241 -0.05688087 0.06971423 0.11979714
0.18797106 -0.11041124 -0.09696764 -0.092830904 -0.10023276 0.07882953 -0.28826106 0.24545595
-0.16349855 -0.1842447 0.16046983 -0.19160445 -0.035033256 0.40020764 -0.13754527 -0.0020852548
0.15604265 0.10502356 -0.27610862 -0.055831797 -0.3503158 -0.19784382 -0.15963444 -0.0021956798
-0.039571643 0.03212 -0.38530472 -0.09149221 0.14734407 -0.2917269 0.09549042 -0.0045730458
0.009938787 -0.023744307 0.09376722 -0.15751079 -0.093099594 0.049301945 0.30869505 0.327659
-0.08359585 0.01573158 -0.13331744 0.3138994 0.109383404 0.30961505 -0.2557837 0.068906344
-0.077242605 -0.07930384 0.2880852 -0.23318237 0.49280724 0.16259123 0.097128734 -0.3407733
00000000: d4cf 4d3e e69e 3a3e e3df 23be 1f2b 89be
00000010: cd4b 9bbe ed43 abbe b70e ed3e 1709 e6be
00000020: 4ddf 88be bcab 853d ff40 7b3e b90c 0b3e
00000030: 3da0 173e 53e9 e23e 8a50 893e e674 c3bc
00000040: e4ae c33d 08cb e93d cf8a 933d 1803 183e
00000050: cf85 133e b552 8bbe 05c7 eb3d 5f00 c53d
00000060: bd31 7ebe 5d18 fdbd dfb2 8e3d 6929 643e
00000070: 32f9 55be 99b2 c93e beb2 4fbe 09e7 133e
00000080: e14a 0ebc 53c9 593d 1add 4dbe 2657 543e
00000090: cfcd d2be 362e b73e 3758 42be 99df db3d
000000a0: 4ea0 283d 61b5 a33e 0a35 9c3c 505d eb3d
000000b0: 4746 4c3e 8c5d 41be a9c7 3c3e 4c38 18be
000000c0: 31bf a63d c344 6b3e 9959 503c d721 63bc
000000d0: f64d d6bd 1306 babe c42b 163f 0c4b 00be
000000e0: 5b35 a53e 4fd1 6dbd 2602 72be 60a2 20bd
000000f0: 8380 cdbe ae1b b2bd 97cf 563e 1135 dfbd
00000100: a89a f93d 5ef4 d2be 644a 5bbe f40f 983e
00000110: f9bd f8bd 7037 973e 5fba 68bd 79b8 cb3d
00000120: 6a7b cc3d d7a7 27bd da2d 97bd fe54 dd3e
00000130: 5595 db3b 670f d63d bcfa 003e 12d4 3abe
00000140: e0c2 063e 1c8e 1abe d7ec 61be ca86 f4bd
00000150: 0e7a c83e 30d0 e8bd a52c c3be 7bd3 7e3e
00000160: c9a6 8dbe 52f7 af3b b48a 1c3d 386a ae3c
00000170: 6df6 743e 9774 e93e 02ed a2bd 9a92 c53d
00000180: 7687 65be f9c5 5cbd 85f9 d8be cd38 0bbe
00000190: b2a0 f4bd fd37 663e 358f f0be da11 90be
000001a0: 77fb 923e af22 903e 6156 8d3c b2de 093e
000001b0: 908d 6b3d 8543 7cbe 8f58 c53d a67a 13be
000001c0: 3740 b33e 5d0e 1f3e 8503 94be 273f 323c
000001d0: 702f 0c3d dffe fabd 38b7 783c b60f f23d
000001e0: 6fa3 66be a835 30be d5aa debc fc57 1cbd
000001f0: 0a71 4a3e 43a8 cfbe 9796 ad3d 1395 22be
00000200: b274 623e 5d31 2f3e 2a4c 0f3e e96b 03be
00000210: 91c2 23be b452 a2be 3327 813b d745 023e
00000220: 52f3 df3d 73f0 3cbd cc57 14be 1ccf 61be
00000230: 3479 6f3e 5194 8fbb 08f6 273e 473e 9abe
00000240: 4d47 1d3e 9842 013d b6ee bfbc afb9 053e
00000250: ef3e ecbc 5623 61bd 4323 453e 2d10 e3be
00000260: 003c b33d f3ad 143f eadf 93be 68f6 c5be
00000270: 008b 1a3e 4a15 2cbd 08a1 afbe 13b4 ef3c
00000280: ccc1 aebe fd4a 653e 66e2 d93e 3618 9abe
00000290: de65 ad3e 080e 123e 3227 b5bd a7ae 853d
000002a0: 5be2 cdbd 2057 c43c f3bf 8c3e b2c2 11be
000002b0: e1f5 d0be bcef 00bd e4d6 77bd 73d9 f53d
000002c0: 2a97 333d bf04 043c f576 ae3d 1012 a03d
000002d0: d407 463d c7ef 843e 6ad2 843e 6781 edbc
000002e0: ed5c d43d 8743 2abd c4e6 8b3d 5b80 89bd
000002f0: 8439 44bd 2b7d 013e 0131 b6bd 5b28 64be
00000300: 0102 c9bd 8090 753d 2722 cf3e 7965 dd3e
00000310: 7fb1 74bb eafb 68bd 56c6 8e3d 3458 f53d
00000320: 7c7b 403e 4a1f e2bd f896 c6bd 211e bebd
00000330: d546 cdbd 6071 a13d f496 93be ce58 7b3e
00000340: 2a6c 27be a5aa 3cbe 3452 243e f533 44be
00000350: 087f 0fbd 04e8 cc3e abd8 0cbe c5a8 08bb
00000360: a5c9 1f3e 9816 d73d 1c5e 8dbe e2af 64bd
00000370: 985c b3be 9297 4abe 3677 23be 65e5 0fbb
00000380: e015 22bd 4390 033d a946 c5be 4560 bbbd
00000390: 5de1 163e 3a5d 95be 7b90 c33d 7dd9 95bb
000003a0: 4bd6 223c 6c83 c2bc 0709 c03d 824a 21be
000003b0: 00ab bebd d6f0 493d 470d 9e3e ecc2 a73e
000003c0: 4d34 abbd 84df 803c 5e84 08be 6cb7 a03e
000003d0: 6804 e03d dd85 9e3e 15f6 82be c51e 8d3d
000003e0: 5f31 9ebd 0d6a a2bd e77f 933e 5cc7 6ebe
000003f0: 3b51 fc3e 517e 263e 6eeb c63d d779 aebe

encoder.blks.block0.ffn.dense2.bias f4 [32]
-0.046215575 -0.020300308 0.02548269 0.05454423 -0.0054229912 -0.07647398 0.029857859 -0.036488216
0.06360607 -0.072022334 -0.031523634 -0.02572784 0.07386165 -0.009903055 0.045897443 -0.10155099
0.06828227 -0.070714764 -0.0044521517 0.08765293 -0.17484342 -0.020123884 -0.054135468 -0.029303059
0.0065543973 -0.021717396 -0.1199789 0.095988445 0.13708203 0.04683652 0.058111284 -0.04809759
00000000: 8b4c 3dbd d54c a6bc 13c1 d03c c569 5f3d
00000010: 59b3 b1bb 649e 9cbd 7898 f43c ab74 15bd
00000020: e643 823d 7280 93bd ed1e 01bd 31c3 d2bc
00000030: c744 973d 6c40 22bc f5fe 3b3d f7f9 cfbd
00000040: 93d7 8b3d e7d2 90bd 5be3 91bb 6183 b33d
00000050: 270a 33be d8da a4bc 27bd 5dbd f80c f0bc
00000060: 45c6 d63b aee8 b1bc 7fb7 f5bd 9795 c43d
00000070: 3b5f 0c3e a7d7 3f3d 1906 6e3d fb01 45bd

encoder.blks.block0.addnorm2.ln.weight f4 [32]
0.93426573 0.8786066 0.7542079 0.9296388 0.8300153 0.9381859 0.89483255 0.97468394
0.8369176 0.71899056 0.78570133 0.8664579 0.68603396 0.7070311 0.8144318 0.7472564
0.88141614 1.0135006 0.889618 0.8304589 0.84007984 0.8349003 0.926068 0.9012053
0.8745139 0.80627215 0.75434107 0.8035736 0.8079025 0.88674206 0.7254624 0.709982
00000000: 0a2c 6f3f 5dec 603f c513 413f cffc 6d3f
00000010: e27b 543f f32c 703f bf13 653f e384 793f
00000020: 3b40 563f c40f 383f b923 493f 2fd0 5d3f
00000030: ec9f 2f3f fdff 343f 9a7e 503f 324c 3f3f
00000040: 7da4 613f 63ba 813f 01be 633f f498 543f
00000050: 790f 573f 07bc 553f cb12 6d3f 64b5 663f
00000060: 25e0 5f3f da67 4e3f 7f1c 413f 00b7 4d3f
00000070: b3d2 4e3f 8701 633f e7b7 393f 61c1 353f

encoder.blks.block0.addnorm2.ln.bias f4 [32]
0.24021685 0.05232816 0.12884025 -0.03228712 -0.18539934 0.02021749 -0.075281166 -0.13346723
-0.08861506 0.011741771 0.15118705 0.09078162 -0.09157737 -0.06340612 0.07567568 0.081543505
0.086522594 0.13392237 0.025814096 -0.10782261 0.025982132 -0.07224316 -0.07546294 0.0026386953
-0.02242915 -0.14199336 -0.02210475 -0.20728293 -0.15982582 0.016251793 -0.034962106 -0.04115511
00000000: 68fb 753e 0d56 563d b3ee 033e 803f 04bd
00000010: 53d9 3dbe 269f a53c 032d 9abd a2ab 08be
00000020: d07b b5bd 8f60 403c c7d0 1a3e b7eb b93d
00000030: eb8c bbbd 11db 81bd dafb 9a3d 4800 a73d
00000040: c232 b13d f222 093e 1578 d33c 1ad2 dcbd
00000050: 7bd8 d43c 39f4 93bd 508c 9abd f6ed 2c3b
00000060: 56bd b7bc b566 11be 0515 b5bc fa41 54be
00000070: 61a9 23be 7b22 853c 6d34 0fbd 4392 28bd
