20.transformer/model.pt (torch, 264758 bytes, 56 tensors)

encoder.embeding.weight f4 [184, 32]
1.9588876 -0.6479292 1.8764404 -2.0972252 0.08227642 -1.1974658 -1.0143905 -0.7142803
-1.6669065 -1.346799 0.23949558 0.5624502 -1.1136999 1.2868577 0.9968254 -1.5455519
-1.9524833 0.2709649 -0.6800477 2.4781492 1.0675001 -0.60038096 0.79189706 -2.2189775
1.914393 0.24201138 0.5293349 -2.589247 -2.1885111 -0.326658 0.27338535 -3.5372875
0.966121 0.553312 -0.56250215 0.5732567 0.21952967 -1.1334707 -0.53442883 -0.51486325
0.871684 0.47524473 1.9968349 -1.4202247 1.0314364 1.6351817 -1.775817 0.15719496
-0.57241684 0.23315544 1.3875417 1.2778214 2.4483001 -0.19567487 2.8556015 -1.7235721
-0.30589926 -0.2096442 2.0835793 1.2452077 0.0922707 0.77853686 -0.0004964135 1.6156263
-2.3430054 -0.22283813 -0.8390771 -0.9172321 1.5162102 0.8646723 -0.7374984 1.5682931
-0.29567596 0.85819155 -2.3445673 -1.8444792 1.3792492 -0.118149005 1.199006 0.7298213
-1.6692886 -2.4856284 -1.1033697 0.7541998 -0.50101435 0.86218256 -0.37704998 -1.8241009
-1.8311626 -0.87901527 -2.3614283 1.104933 1.1069536 0.9269755 -1.8729857 1.8670186
-0.38571817 -0.074346535 0.002800828 0.14635769 1.1856201 -0.26186696 2.3878567 -0.15879984
-1.2139848 0.97451955 0.09243382 0.5394198 1.264244 -0.77848667 -0.15184158 -1.6719867
0.922484 -0.98568624 -0.5528656 0.23145182 -1.3055481 0.130085 1.4415042 -0.45516443
0.44134903 0.6022137 -0.69191784 -0.50473976 0.030310588 -2.377031 0.33287373 -0.21594529
-0.104842365 0.618321 -0.79387677 -0.39053848 2.2175043 0.89331686 -1.0567796 0.32126924
-1.769212 0.63209397 -1.2422467 0.8507011 0.5057448 1.2386012 0.36854708 0.48545772
-0.73495585 -1.4032768 -1.9113059 2.2273784 0.7795542 -1.210311 0.20866793 -1.5020719
-1.0228746 -0.752543 -0.5718935 -0.20554586 0.9513764 -0.17336911 -1.0949569 -0.4075774
0.41892838 0.7433526 -0.43437883 -0.3898423 0.7708584 1.955606 2.3265476 -0.24023469
0.82100433 -0.52429044 -1.4985732 -0.34032452 -1.7093819 -0.06583142 0.45057136 0.3050581
-1.1007898 1.0583888 -0.48080698 -0.14241003 -0.017188784 0.63793325 -1.1520737 -0.26383504
0.92732906 -0.09443243 -1.3012027 -0.42720073 0.44543368 0.17946601 0.85671926 1.592483
-0.5142691 0.669316 1.1080751 -0.64667624 0.73042876 -1.0168633 1.0678927 -0.95848304
0.12859376 4.0320477 -1.6639272 0.91383713 1.1847306 -3.0884013 -1.1690491 -2.247876
-0.42020366 -1.4191079 -0.29495972 -0.3724464 -1.0201497 -1.3175 1.2368212 -3.2635238
-1.5065341 -2.3011036 -0.45104086 0.14245354 -1.028504 -0.22242525 0.25815803 0.20874198
0.04970156 -0.9392909 0.15002951 -1.486715 2.4421806 0.21015431 1.3773817 -3.3616326
-1.5787741 1.2922778 -0.3876077 0.48203436 -1.3228545 0.4599072 -2.0506294 -0.5064042
0.6290887 2.4144356 1.1080077 -1.1906525 -0.32940507 -3.4435487 2.7125072 -0.53405607
-2.0606964 1.0510819 2.39468 0.75181055 -0.6301529 -1.6471249 0.5995231 0.339039
00000000: d4bc fa3f b0de 25bf 332f f03f f038 06c0
00000010: 8a80 a83d 8f46 99bf 8cd7 81bf 13db 36bf
00000020: 315d d5bf e963 acbf 543e 753e bcfc 0f3f
00000030: b88d 8ebf c1b7 a43f f32f 7f3f a5d4 c5bf
00000040: f9ea f9bf e9bb 8a3e 9b17 2ebf ff99 1e40
00000050: d8a3 883f 91b2 19bf c4b9 4a3f ba03 0ec0
00000060: d40a f53f d5d1 773e 7e82 073f 39b6 25c0
00000070: 9110 0cc0 b83f a7be 2af9 8b3e eb62 62c0
00000080: b553 773f dba5 0d3f 2400 10bf f3c0 123f
00000090: 63cc 603e 9115 91bf 54d0 08bf 14ce 03bf
000000a0: af26 5f3f 4753 f33e 4998 ff3f ecc9 b5bf
000000b0: 1c06 843f a24d d13f f94d e3bf b7f7 203e
000000c0: e989 12bf 4dc0 6e3e f79a b13f a78f a33f
000000d0: f3b0 1c40 fe5e 48be 2dc2 3640 039e dcbf
000000e0: d49e 9cbe f8ac 56be 5d59 0540 f762 9f3f
000000f0: 6cf8 bc3d 314e 473f bf21 02ba d8cc ce3f
00000100: cdf3 15c0 ae2f 64be c2cd 56bf b9cf 6abf
00000110: 2d13 c23f 2a5b 5d3f b2cc 3cbf d4bd c83f
00000120: d762 97be 71b2 5b3f 640d 16c0 e517 ecbf
00000130: 3d8b b03f 1bf8 f1bd 0779 993f 92d5 3a3f
00000140: 40ab d5bf 8914 1fc0 383b 8dbf 3d13 413f
00000150: 7a42 00bf ffb7 5c3f b20c c1be 237c e9bf
00000160: 8963 eabf 2507 61bf a421 17c0 726e 8d3f
00000170: a8b0 8d3f 444e 6d3f ffbd efbf 77fa ee3f
00000180: da7c c5be ff42 98bd 198e 373b cade 153e
00000190: 66c2 973f 6d13 86be a5d2 1840 6d9c 22be
000001a0: db63 9bbf 1d7a 793f f14d bd3d 6a17 0a3f
000001b0: bfd2 a13f e74a 47bf 5c7c 1bbe a903 d6bf
000001c0: e927 6c3f ef55 7cbf 9a88 0dbf b501 6d3e
000001d0: 331c a7bf 0135 053e 3683 b83f 500b e9be
000001e0: 80f8 e13e ad2a 1a3f 8721 31bf a036 01bf
000001f0: e94d f83c 4721 18c0 6d6e aa3e c320 5dbe
00000200: 98b7 d6bd 494a 1e3f 823b 4bbf a9f4 c7be
00000210: 97eb 0d40 6ab0 643f 8e44 87bf 677d a43e
00000220: 8a75 e2bf e9d0 213f f101 9fbf 8cc7 593f
00000230: 7e78 013f 7c8a 9e3f 34b2 bc3e ea8d f83e
00000240: 1126 3cbf 939e b3bf aca5 f4bf 5e8d 0e40
00000250: dd90 473f 79eb 9abf 0cad 553e e443 c0bf
00000260: 8eed 82bf a8a6 40bf 9d67 12bf 9d7a 52be
00000270: 678d 733f ac87 31be 8c27 8cbf fcad d0be
00000280: c87d d63e 5b4c 3e3f e766 debe 6999 c7be
00000290: fa56 453f 4c51 fa3f 28e6 1440 1500 76be
000002a0: 572d 523f e637 06bf 3fd1 bfbf 043f aebe
000002b0: 07cd dabf a0d2 86bd 4ab1 e63e 9330 9c3e
000002c0: aee6 8cbf 4979 873f 552c f6be efd3 11be
000002d0: 7ecf 8cbc 984f 233f 2777 93bf 6315 87be
000002e0: 7065 6d3f ca65 c1bd cf8d a6bf 0eba dabe
000002f0: e20f e43e f0c5 373e f451 5b3f 7cd6 cb3f
00000300: 24a7 03bf 4b58 2b3f 68d5 8d3f 938c 25bf
00000310: 61fd 3a3f 9428 82bf b5b0 883f 255f 75bf
00000320: 15ae 033e 8906 8140 91fb d4bf 3bf1 693f
00000330: 41a5 973f 5ea8 45c0 67a3 95bf 33dd 0fc0
00000340: ef24 d7be 54a5 b5bf f604 97be 4bb1 bebe
00000350: 4494 82bf d7a3 a8bf 2850 9e3f 93dd 50c0
00000360: 1cd6 c0bf 4845 13c0 d4ee e6be 57df 113e
00000370: 05a6 83bf 72c3 63be 4a2d 843e 75c0 553e
00000380: dd93 4b3d 5e75 70bf 56a1 193e ad4c bebf
00000390: b04c 1c40 b132 573e 0b4e b03f fd24 57c0
000003a0: 4515 cabf 5c69 a53f 8474 c6be 35cd f63e
000003b0: 4c53 a9bf f578 eb3e 833d 03c0 b5a3 01bf
000003c0: f50b 213f 1d86 1a40 32d3 8d3f 4d67 98bf
000003d0: c8a7 a8be 1a63 5cc0 b899 2d40 e6b7 08bf
000003e0: 73e2 03c0 da89 863f 7042 1940 a876 403f
000003f0: b351 21bf fdd4 d2bf 597a 193f 8596 ad3e

encoder.layers.encoder_layer_0.attention1.W_Q.weight f4 [32, 32]
0.4286512 -0.073941685 -0.18375935 0.1132729 0.103782885 -0.2364956 -0.031080138 -0.085121885
0.5243435 0.24340543 0.006883886 0.04265437 0.20926729 0.033565376 0.2894409 -0.28695557
-0.2967587 -0.24251576 0.14495711 0.31342083 -0.5231333 -0.102835946 0.44187528 -0.14398484
-0.28388032 -0.25305697 0.5957037 0.037766762 -0.36371768 -0.05873465 -0.09531507 0.02256696
0.28510746 0.13968411 0.0850227 -0.10314676 0.06648711 0.25400633 -0.006295686 0.61790824
0.6111366 0.28561875 0.10588158 0.11310906 0.11042014 0.14879316 0.4940462 0.033976212
-0.7160724 0.35331556 0.12519045 0.25058272 0.017987559 0.14112355 0.7411072 0.33815062
-0.23666699 0.36615604 -0.13885199 0.41379988 0.23143579 0.07000898 -0.12159812 -0.0373272
-0.21817231 -0.19353369 0.31697044 0.19315895 0.19144453 -0.10598893 -0.048232336 0.25136295
-0.37919104 -0.08188788 0.014935926 0.13555019 0.113478124 -0.0042530634 0.5847854 -0.16461636
-0.47372916 0.04936837 -0.28483367 0.10200995 -0.50838345 -0.34481525 0.02969588 -0.36499533
-0.35129088 -0.09999681 -0.1353958 -0.27317435 -0.49061605 0.25253937 -0.27953193 -0.07155568
-0.8530021 -0.12270286 -0.4722202 -0.44899154 -0.6958063 -0.80363965 -0.5568229 -0.64311796
-0.26562592 -0.95814663 -0.38091746 -0.57333356 -0.26934618 -0.528059 -0.17596291 -0.36254424
-0.19527365 -0.87634546 0.8202418 -0.8961365 -0.3477601 -0.64751846 0.023056658 -0.46179244
-0.05228188 -0.36509717 -0.12840135 -0.8022035 -0.5039704 -0.5486638 0.19536076 -0.5762273
0.43923593 0.24344717 0.004314583 -0.25455523 0.28810534 0.32898203 -0.17158777 0.18780228
-0.03322447 0.30048946 0.09237646 0.15340398 -0.21581128 0.51042026 0.53753495 0.2869993
-0.30952612 -0.13048616 -0.19473721 0.32505104 -0.1315972 0.39508656 0.90595865 0.07932659
-0.46483833 -0.05736686 0.77920395 0.106048405 -0.18246865 0.37192014 -0.20853525 0.34495652
0.75667953 0.21787882 0.24898905 0.5641403 0.09314413 0.5248743 0.32018685 0.1705354
0.395134 0.392222 -0.045023993 0.15454488 0.22353691 0.61146826 0.4936873 0.326416
-0.6608456 0.17503518 -0.18246241 0.5354964 -0.13489912 0.29343468 0.06732686 0.32730097
-0.8040171 0.13204281 -0.06049666 0.38909173 0.5814573 0.5366359 0.067944 0.16206397
-0.08645238 -0.2257746 -0.06428233 0.177029 -0.29709652 -0.22022377 -0.17613824 -0.19370276
-0.21062373 -0.21868978 -0.46385145 -0.21690908 -0.22557431 -0.23206525 -0.0010864881 -0.5680257
0.14748298 -0.23946092 -0.19635041 -0.18576196 -0.6484117 -0.37952518 -0.046242632 -0.49433258
-0.11004569 -0.03678227 -0.06536073 -0.11946856 -0.04644647 -0.15888555 0.38028455 -0.36525935
0.2957491 0.22062227 -0.32390574 -0.20057714 0.0038569774 0.011918437 0.294295 0.19623746
0.22225884 -0.030959008 -0.32169595 0.08419526 0.38329864 0.058571346 -0.10981333 -0.0906753
0.2677728 0.20190886 -0.026682703 -0.31375504 -0.098538674 -0.11325392 -0.02119276 -0.0048990976
0.25314185 0.22944419 0.5224011 -0.08582419 0.11315622 -0.19641495 -0.19475895 0.038901206
00000000: 2c78 db3e bd6e 97bd 692b 3cbe 9ffb e73d
00000010: 1f8c d43d e72b 72be c69b febc 6254 aebd
00000020: 603b 063f 463f 793e 3992 e13b 59b6 2e3d
00000030: 2a4a 563e d97b 093d 9931 943e d7eb 92be
00000040: c2f0 97be 0d56 78be a36f 143e b278 a03e
00000050: 10ec 05bf a79b d2bd 7a3d e23e c370 13be
00000060: c358 91be af90 81be 0a80 183f 52b1 1a3d
00000070: 3439 babe bf93 70bd 8c34 c3bd 58de b83c
00000080: 9bf9 913e 5a09 0f3e 6220 ae3d 9c3e d3bd
00000090: 652a 883d 1e0d 823e 0b4c cebb 3c2f 1e3f
000000a0: 7373 1c3f 9f3c 923e 71d8 d83d b9a5 e73d
000000b0: f423 e23d 3c5d 183e a0f3 fc3e a42a 0b3d
000000c0: 8550 37bf c7e5 b43e ed31 003e 614c 803e
000000d0: a55a 933c b182 103e 34b9 3d3f 1422 ad3e
000000e0: d558 72be ce78 bb3e 372f 0ebe 94dd d33e
000000f0: 81fd 6c3e de60 8f3d 6f08 f9bd 68e4 18bd
00000100: 9068 5fbe b22d 46be f349 a23e 76cb 453e
00000110: 090a 443e b910 d9bd 458f 45bd a5b2 803e
00000120: 5425 c2be d5b4 a7bd d0b5 743c abcd 0a3e
00000130: 3867 e83d 485d 8bbb 7fb4 153f 3191 28be
00000140: a18c f2be 7d36 4a3d b8d5 91be 98ea d03d
00000150: 6b25 02bf a08b b0be c644 f33c abe0 babe
00000160: 66dc b3be 21cb ccbd 32a5 0abe 82dd 8bbe
00000170: 0732 fbbe d74c 813e cf1e 8fbe c98b 92bd
00000180: 585e 5abf a34b fbbd d9c6 f1be 38e2 e5be
00000190: 5d20 32bf 54bb 4dbf f28b 0ebf 61a3 24bf
000001a0: 1f00 88be 1949 75bf 9d07 c3be fdc5 12bf
000001b0: bee7 89be e02e 07bf 9f2f 34be 669f b9be
000001c0: d1f5 47be 2d58 60bf 5efb 513f 3469 65bf
000001d0: 9d0d b2be c5c3 25bf 51e1 bc3c 0f70 ecbe
000001e0: 8625 56bd 04ee babe a57b 03be 355d 4dbf
000001f0: 3404 01bf 3b75 0cbf a70c 483e a283 13bf
00000200: 88e3 e03e 374a 793e 5861 8d3b 1055 82be
00000210: 8b82 933e 5570 a83e b4b4 2fbe 3e4f 403e
00000220: 6216 08bd c1d9 993e df2f bd3d ef15 1d3e
00000230: a2fd 5cbe e7aa 023f e49b 093f 92f1 923e
00000240: 357a 9ebe 2a9e 05be 3169 47be 176d a63e
00000250: 6bc1 06be c948 ca3e e8ec 673f fb75 a23d
00000260: 4aff edbe 83f9 6abd e979 473f e82f d93d
00000270: 10d9 3abe 516c be3e 448a 55be 249e b03e
00000280: c0b5 413f a01b 5f3e fcf6 7e3e 806b 103f
00000290: 5ac2 be3d 2a5e 063f 88ef a33e d5a0 2e3e
000002a0: 014f ca3e 52d1 c83e 146b 38bd 0341 1e3e
000002b0: dce6 643e 2f89 1c3f 95c4 fc3e ff1f a73e
000002c0: 2d2d 29bf 6c3c 333e 6dd7 3abe 4b16 093f
000002d0: ff22 0abe 123d 963e aae2 893d fe93 a73e
000002e0: 11d4 4dbf 3b36 073e 59cb 77bd 0837 c73e
000002f0: 63da 143f f860 093f 3926 8b3d 19f4 253e
00000300: f20d b1bd 7531 67be 74a6 83bd 1747 353e
00000310: 091d 98be 5782 61be 955d 34be 045a 46be
00000320: bfad 57be 37f0 5fbe f07d edbe 6a1d 5ebe
00000330: f4fc 66be 83a2 6dbe 7e68 8eba 226a 11bf
00000340: c705 173e 3e35 75be 1510 49be 6238 3ebe
00000350: 4ffe 25bf 2051 c2be ea68 3dbd 2919 fdbe
00000360: a25f e1bd 01a9 16bd d9db 85bd efab f4bd
00000370: a73e 3ebd e5b2 22be a8b4 c23e 4603 bbbe
00000380: 6d6c 973e ceea 613e f9d6 a5be 1864 4dbe
00000390: 58c5 7c3b 8c45 433c d6ad 963e 79f2 483e
000003a0: d297 633e bf9d fdbc 55b5 a4be 916e ac3d
000003b0: b83f c43e 82e8 6f3d d0e5 e0bd f9b3 b9bd
000003c0: 8419 893e 32c1 4e3e af95 dabc 80a4 a0be
000003d0: a5ce c9bd acf1 e7bd 709c adbc 9c88 a0bb
000003e0: cf9b 813e 6bf3 6a3e 14bc 053f 98c4 afbd
000003f0: 73be e73d 0021 49be e46e 47be df56 1f3d

encoder.layers.encoder_layer_0.attention1.W_K.weight f4 [32, 32]
-0.16822784 0.024991296 0.26715362 -0.054576956 0.2278259 -0.024248688 0.25720593 -0.20008971
0.2610341 0.23549029 0.12368901 0.056313075 0.07554432 0.22105707 0.7316933 -0.13143784
0.5300381 -0.22694892 0.27152562 0.22245786 0.13547754 -0.23404792 0.53581953 0.044796377
-0.05064526 0.3501139 -0.065789625 0.05069551 0.09678628 -0.1258949 -0.1704584 0.0062004984
-0.3319186 0.58788425 -0.74494034 0.1759565 -0.9967767 0.036613885 -0.43390658 0.11023919
-0.6459872 0.16089216 0.07922975 0.01636345 -0.07927555 0.019283954 -0.48198447 -0.042706817
0.40064827 -0.3244078 -0.036251202 0.39922154 -0.16914864 0.077723086 -0.8807442 -0.1556687
0.05559613 0.07108864 0.26665938 -0.11741546 -0.09283975 -0.3633363 -0.18653993 0.046443403
-0.14262015 0.26178122 -0.5332108 0.067960955 -0.10860247 -0.038590845 -0.008439907 0.16377336
-0.14738901 0.049525812 -0.02373834 0.021589184 0.1676385 0.19917867 0.568199 0.037143346
0.64979726 -0.094645455 0.0018727181 0.40765467 -0.20574333 -0.17535712 -0.46374765 -0.2566754
-0.23812118 0.2556662 -0.08598568 -0.12325578 0.50305367 -0.26492488 0.1959527 0.1136834
0.9337054 -0.24704713 1.0675204 -0.09896468 1.0996362 0.34052947 0.69170743 -0.22236153
0.53022665 0.025224075 -0.0031823902 -0.2016003 -0.27572986 0.07092052 0.26586 -0.04171114
-0.40049028 -0.23787875 -0.19208676 -0.10876783 0.12685975 -0.0052648075 0.49706575 0.110357694
0.14992376 -0.23381233 -0.1976862 0.16646624 -0.20450966 -0.056958232 -0.105858006 0.31092528
-0.5034902 0.5784002 -0.56211495 0.02966071 -0.7859863 -0.13013479 -0.35701823 0.22966133
-0.096317366 0.2699304 0.11518722 0.25455058 -0.25987288 -0.22398154 -0.30605486 -0.09151268
0.18623747 -0.26947632 0.36131498 0.01335982 -0.35185364 0.104769625 -0.28760388 -0.20070225
0.42206845 -0.12706392 -0.07052686 0.13484421 -0.15750003 0.11686929 -0.22569355 -0.36502463
-0.6404999 0.25012025 -0.8707143 0.31663635 -0.93294877 -0.1887207 -0.5805611 -0.21819854
-0.4250154 0.107953876 -0.011200263 0.055852585 -0.17149122 -0.35196638 -0.4824016 0.029672028
0.24161448 -0.16638614 0.18884648 0.09296651 0.036393844 -0.370184 -0.5569597 -0.14498118
-0.09691129 0.059787482 0.030489905 0.018857792 0.08063026 -0.109521225 -0.35909158 0.082471676
0.2600935 -0.50371754 0.78749406 0.10924291 0.48191738 0.21645676 0.48295662 -0.09972823
0.54522383 -0.009267725 0.01899771 0.07178687 0.06823855 -0.0127059305 0.47842455 0.11961428
-0.44518217 0.28171277 -0.1784258 -0.057540912 -0.1939069 0.14153682 0.33154824 0.14422409
-0.24081068 -0.15179999 0.03489535 0.3104409 -0.29761833 -0.12093772 -0.043814562 -0.112734124
0.42924437 0.19423458 0.40409282 0.06118919 0.17866038 0.08156164 -0.07824902 0.36696687
0.23032847 -0.2572801 0.037946776 -0.20266053 -0.3919848 0.36137846 0.6326813 -0.09746277
-0.020598104 -0.059730798 0.23086855 -0.21291855 0.24961883 0.13089761 0.47356296 0.30855152
0.08438711 0.01857482 0.51644355 0.1357522 -0.06920045 0.031840544 -0.1166197 0.035313506
00000000: eb43 2cbe 8cba cc3c 5cc8 883e 168c 5fbd
00000010: 314b 693e 2fa5 c6bc 7fb0 833e 51e4 4cbe
00000020: 43a6 853e 5e24 713e aa50 fd3d 8aa8 663d
00000030: fbb6 9a3d c95c 623e 4150 3b3f a497 06be
00000040: 94b0 073f 4c65 68be 6805 8b3e fecb 633e
00000050: a0ba 0a3e 42aa 6fbe 782b 093f 687c 373d
00000060: 6771 4fbd 2142 b33e b6bc 86bd 18a6 4f3d
00000070: e337 c63d 98ea 00be a68c 2ebe 8d2d cb3b
00000080: 3cf1 a9be 957f 163f 69b4 3ebf f12d 343e
00000090: c22c 7fbf 71f8 153d 0129 debe 16c5 e13d
000000a0: 6b5f 25bf eac0 243e 3543 a23d a40c 863c
000000b0: 385b a2bd 62f9 9d3c abc6 f6be 58ed 2ebd
000000c0: c521 cd3e c718 a6be 247c 14bd c466 cc3e
000000d0: 4d35 2dbe 482d 9f3d 7478 61bf 9e67 1fbe
000000e0: c5b8 633d ec96 913d 9487 883e 8477 f0bd
000000f0: c422 bebd 3707 babe 5304 3fbe 703b 3e3d
00000100: 040b 12be 3008 863e 8180 08bf 1d2f 8b3d
00000110: f96a debd 6f11 1ebd 8947 0abc 34b4 273e
00000120: 25ed 16be 94db 4a3d e876 c2bc cddb b03c
00000130: 6da9 2b3e 7ef5 4b3e 7d75 113f 9f23 183d
00000140: 1d59 263f 7ad5 c1bd fe75 f53a 1db8 d03e
00000150: 61ae 52be d190 33be 5570 edbe f56a 83be
00000160: 0ad6 73be aee6 823e 4319 b0bd 876d fcbd
00000170: 20c8 003f 3ca4 87be d3a7 483e d8d2 e83d
00000180: 5107 6f3f ecf9 7cbe 82a4 883f ffad cabd
00000190: e1c0 8c3f e159 ae3e bd13 313f beb2 63be
000001a0: efbc 073f b8a2 ce3c a68f 50bb 4f70 4ebe
000001b0: 772c 8dbe c73e 913d cd1e 883e 4dd9 2abd
000001c0: 100d cdbe 7d96 73be 64b2 44be abc1 debd
000001d0: 86e7 013e 6884 acbb 677f fe3e 3703 e23d
000001e0: 9d85 193e 806c 6fbe 406e 4abe 2076 2a3e
000001f0: fb6a 51be 094d 69bd 15cc d8bd 9931 9f3e
00000200: bce4 00bf 0912 143f c4e6 0fbf 04fb f23c
00000210: 6636 49bf 0e42 05be 18cb b6be 572c 6b3e
00000220: 0a42 c5bd 5134 8a3e 47e7 eb3d 7454 823e
00000230: 0f0e 85be 6b5b 65be 39b3 9cbe 006b bbbd
00000240: 09b5 3e3e cdf8 89be 47fe b83e 25e3 5a3c
00000250: 2926 b4be 7591 d63d d140 93be e484 4dbe
00000260: 5b19 d83e 0b1d 02be 6370 90bd 9a14 0a3e
00000270: b047 21be 2b59 ef3d 361c 67be 82e4 babe
00000280: cdf7 23bf c30f 803e 22e7 5ebf 291e a23e
00000290: bbd5 6ebf 0040 41be a79f 14bf 706f 5fbe
000002a0: 9e9b d9be ec16 dd3d 4f81 37bc aec5 643d
000002b0: 659b 2fbe f034 b4be 58fd f6be c112 f33c
000002c0: c969 773e 2161 2abe f960 413e 3a65 be3d
000002d0: b611 153d c288 bdbe e994 0ebf f275 14be
000002e0: 6d79 c6bd b8e3 743d f7c5 f93c a87b 9a3c
000002f0: 7a21 a53d aa4c e0bd dada b7be e9e6 a83d
00000300: fa2a 853e a2f3 00bf 3699 493f bfba df3d
00000310: e0bd f63e d7a6 5d3e 1746 f73e 503e ccbd
00000320: ca93 0b3f a8d7 17bc 16a1 9b3c ff04 933d
00000330: a7c0 8b3d 892c 50bc 10f4 f43e 55f8 f43d
00000340: ebee e3be a83c 903e 41b5 36be 05b0 6bbd
00000350: 888f 46be 07ef 103e b1c0 a93e 7baf 133e
00000360: 1397 76be 7571 1bbe 6dee 0e3d 1cf2 9e3e
00000370: 6e61 98be 32ae f7bd e676 33bd 26e1 e6bd
00000380: ebc5 db3e 6ee5 463e 41e5 ce3e 84a1 7a3d
00000390: bff2 363e ca09 a73d 0641 a0bd 15e3 bb3e
000003a0: 3adb 6b3e 38ba 83be 146e 1b3d 3e86 4fbe
000003b0: 3bb2 c8be 9906 b93e 67f7 213f 909a c7bd
000003c0: 5bbd a8bc 48a8 74bd ce68 6c3e 5207 5abe
000003d0: 149c 7f3e 060a 063e d876 f23e 77fa 9d3e
000003e0: 26d3 ac3d 392a 983c a535 043f a002 0b3e
000003f0: f7b8 8dbd 3b6b 023d 4fd6 eebd e5a4 103d

encoder.layers.encoder_layer_0.attention1.W_V.weight f4 [32, 32]
-0.03506797 -0.011115936 0.35794365 -0.120674625 1.0348092 -0.11040529 0.35282335 -0.0041993004
0.4998086 0.039720014 -0.25710154 0.11673563 0.89534056 0.010568569 -0.6164646 0.1954634
0.39707127 -0.05194927 0.27572656 0.09622942 0.1975596 -0.17119515 -0.8085267 0.053646058
0.46423846 -0.2103554 0.86023927 -0.09847198 0.0025050722 0.18341486 -0.32899725 -0.12755781
1.2338274 -0.20275275 -0.1399738 -0.05348797 -0.34216988 -0.042470343 0.57389903 -0.14157763
0.36566222 0.11027655 0.36006284 0.033940267 0.20032714 0.04051866 -0.93373597 -0.061421234
0.8770116 -0.17749079 0.7613603 0.016038442 0.05396361 0.08894783 -0.32722592 0.0837946
1.1171873 -0.11034849 -0.16674088 0.06619227 0.6869226 -0.19743973 0.8767026 0.048158616
-0.3014665 -0.2536136 0.22197977 0.20518622 0.18252534 -0.07114017 -0.63546777 0.14826632
0.8589406 0.04599453 1.1086661 -0.23853242 0.31307894 -0.0048255594 -0.95317405 0.08726655
-0.30558956 0.057864685 0.3048205 0.049663167 0.7151436 -0.04907435 -1.055632 -0.15268888
0.47979105 0.20221758 0.5167455 0.075149536 0.24093089 -0.17430875 0.93753684 0.088468306
0.7474033 -0.2118136 0.44970977 0.041669253 -1.1852285 -0.036267802 0.32257703 0.22367464
0.85309464 0.22322513 -2.000603 -0.07635044 0.1533663 -0.051109795 0.55136925 0.07639201
1.2840668 0.03135788 -0.25941813 -0.060038988 -0.21973024 0.06433837 1.1545525 -0.15261494
0.010244785 0.12028848 0.0035294143 0.1612242 -0.6681261 -0.12015748 0.14268488 0.0347298
-0.9279957 -0.10605554 0.047142625 -0.020010183 -1.2435672 0.07432458 0.55404 -0.21363384
-0.004938934 0.037581544 -0.3776063 -0.108634904 -0.4550896 0.005680741 0.089366436 -0.014466035
0.6765943 0.052047778 -0.29259303 -0.016075801 0.659712 -0.002484325 -0.38948599 0.41553727
0.3363675 -0.2920413 -1.2017486 -0.06984094 0.879762 -0.009170746 0.86341435 -0.08656256
0.9179135 -0.17842263 -0.8324958 -0.038627572 -0.43576443 -0.22520971 0.51787287 0.24605131
-1.4735942 -0.050908763 0.5347779 0.060197912 -0.7013366 0.051621635 0.36631763 0.12619561
-0.24594109 0.12685812 -0.9471321 0.06550307 -0.6029012 -0.032132886 -0.448349 -0.14858931
0.4485475 0.25202525 -0.7623573 -0.049192157 0.46173373 0.089003175 -0.78393376 -0.08720359
-0.34199294 -0.15033439 -0.7216183 0.11257642 -0.91985714 0.082999274 -1.016517 -0.02338677
0.32440433 0.1357309 -0.37842846 -0.13990894 -1.003043 -0.12794255 0.23279005 0.10779355
-0.30756095 0.15128635 -0.6598672 -0.12401085 0.4224557 -0.08260391 0.55310184 -0.12189889
-1.3352413 -0.055008598 -0.18499683 -0.08474187 -0.52304447 0.02990717 0.08798051 0.11102139
-0.8347315 0.06917144 0.7471492 -0.119505204 -0.301591 -0.04764543 0.08415395 0.22776212
0.41227224 -0.0038973775 -0.30234706 -0.12585388 -0.09782732 -0.07927074 -0.25433674 0.20311145
0.8736775 0.20719413 -0.09380004 -0.039331704 0.68934405 -0.09293058 -1.1618512 -0.31846902
0.76991373 0.21521707 -0.34488958 -0.07024052 0.6966403 0.10100075 0.85464996 0.01728474
00000000: 6fa3 0fbd 9d1f 36bc 6444 b73e 4224 f7bd
00000010: a174 843f 2b1c e2bd 43a5 b43e 499a 89bb
00000020: eae6 ff3e 74b1 223d d0a2 83be 1713 ef3d
00000030: 0a35 653f cb27 2d3c a0d0 1dbf 8f27 483e
00000040: ed4c cb3e c2c8 54bd 082c 8d3e ee13 c53d
00000050: 104d 4a3e c84d 2fbe 9bfb 4ebf f8bb 5b3d
00000060: aab0 ed3e 6867 57be a438 5c3f adab c9bd
00000070: 232c 243b 1bd1 3b3e 5472 a8be 849e 02be
00000080: 0eee 9d3f 6b9e 4fbe 4b55 0fbe 3416 5bbd
00000090: e430 afbe 62f5 2dbd 0ceb 123f baf9 10be
000000a0: 1438 bb3e acd8 e13d 285a b83e f304 0b3d
000000b0: 8f22 4d3e e5f6 253d 5209 6fbf d594 7bbd
000000c0: d583 603f 25c0 35be 82e8 423f 0d63 833c
000000d0: f208 5d3d 482a b63d 288a a7be 819c ab3d
000000e0: feff 8e3f 64fe e1bd 1fbe 2abe d08f 873d
000000f0: 29da 2f3f a42d 4abe 956f 603f f841 453d
00000100: d159 9abe a4d9 81be aa4e 633e 561c 523e
00000110: ece7 3a3e f0b1 91bd 04ae 22bf 20d3 173e
00000120: 88e3 5b3f c364 3c3d c5e8 8d3f d841 74be
00000130: e24b a03e ba1f 9ebb 3703 74bf ceb8 b23d
00000140: 3c76 9cbe 8503 6d3d 6f11 9c3e 9b6b 4b3d
00000150: a713 373f 3002 49bd f31e 87bf 795a 1cbe
00000160: 2ca7 f53e 2012 4f3e 6f49 043f 00e8 993d
00000170: 96b6 763e fe7d 32be 6a02 703f df2e b53d
00000180: d355 3f3f aae5 58be 5c40 e63e 61ad 2a3d
00000190: 91b5 97bf 8c8d 14bd d128 a53e f70a 653e
000001a0: 6964 5a3f 2195 643e e109 00c0 9f5d 9cbd
000001b0: 0e0c 1d3e 8158 51bd 8926 0d3f 6a73 9c3d
000001c0: 4d5c a43f 1f71 003d 74d2 84be 71eb 75bd
000001d0: f700 61be d6c3 833d 60c8 933f 1747 1cbe
000001e0: bed9 273c ce59 f63d bf4d 673b f517 253e
000001f0: 500a 2bbf 2015 f6bd fc1b 123e d640 0e3d
00000200: 2091 6dbf a633 d9bd a018 413d 65ec a3bc
00000210: 362d 9fbf 7c37 983d 91d5 0d3f d4c2 5abe
00000220: c8d6 a1bb 1bef 193d 9d55 c1be fa7b debd
00000230: 8101 e9be 8225 ba3b c005 b73d f302 6dbc
00000240: 4935 2d3f 0d30 553d c1ce 95be 66b1 83bc
00000250: e3e2 283f 0fd0 22bb b56a c7be 4dc1 d43e
00000260: 5c38 ac3e 7086 95be e6d2 99bf c408 8fbd
00000270: 1538 613f e640 16bc b908 5d3f b647 b1bd
00000280: 61fc 6a3f 6cb4 36be 721e 55bf f237 1ebd
00000290: 841c dfbe 609d 66be 5193 043f e0f4 7b3e
000002a0: bc9e bcbf b585 50bd 34e7 083f 1692 763d
000002b0: cc8a 33bf 3571 533d fc8d bb3e 6c39 013e
000002c0: fbd7 7bbe 18e7 013e 4077 72bf 7926 863d
000002d0: bc57 1abf c69d 03bd 008e e5be cc27 18be
000002e0: 05a8 e53e 7409 813e d929 43bf b77d 49bd
000002f0: 5d68 ec3e 4c47 b63d e2af 48bf cc97 b2bd
00000300: b319 afbe 42f1 19be fabb 38bf 778e e63d
00000310: c27b 6bbf 86fb a93d 3b1d 82bf 9d95 bfbc
00000320: 5318 a63e 0bfd 0a3e 60c1 c1be 4a44 0fbe
00000330: b763 80bf 5f03 03be 8460 6e3e ddc2 dc3d
00000340: a178 9dbe cfea 1a3e 0fed 28bf 67f9 fdbd
00000350: 1d4c d83e 3d2c a9bd 1598 0d3f 20a6 f9bd
00000360: 30e9 aabf b250 61bd cf6f 3dbe 258d adbd
00000370: 3ee6 05bf e2ff f43c 202f b43d 2f5f e33d
00000380: f7b0 55bf c2a9 8d3d 2c45 3f3f 25bf f4bd
00000390: 236a 9abe db27 43bd e858 ac3d 793a 693e
000003a0: 5915 d33e 256b 7fbb 3ccd 9abe d7df 00be
000003b0: b159 c8bd b358 a2bd 6d38 82be 73fc 4f3e
000003c0: 54a9 5f3f b32a 543e 3c1a c0bd 481a 21bd
000003d0: da78 303f 6352 bebd 8ab7 94bf 5f0e a3be
000003e0: 1119 453f dd61 5c3e 5e95 b0be 43da 8fbd
000003f0: 0557 323f 7bd9 ce3d 57ca 5a3f ba98 8d3c

encoder.layers.encoder_layer_0.attention1.W_out.weight f4 [32, 32]
0.33567548 -0.15911178 0.24346831 -0.0013082324 -0.6818581 -0.6531113 0.3819976 -0.33927932
-0.015775584 0.01764001 0.26569894 0.0018653285 -0.1516058 -0.42525995 -0.28435025 0.4283708
0.13335139 0.36051092 -0.0017788378 -0.5051896 0.20106578 0.32323462 0.015195148 0.034247063
-0.10455751 0.09562738 -0.27327076 -0.13615984 0.5420922 -0.49229822 0.22132315 -0.24475111
0.4636123 -0.3254706 -0.30193493 0.24937178 -0.22294655 -0.10181123 -0.11662959 0.038050547
-0.116851866 0.2777683 -0.023817636 -0.07474275 0.19197932 0.20549089 0.07991149 -0.2765561
-0.18218444 -0.366314 -0.07352866 -0.60325706 0.3734889 -0.41316745 -0.22084573 -0.3876063
0.18859246 -0.36232576 0.26129836 0.103825144 0.07269491 -0.40712604 -0.2864347 0.23689158
-0.038202148 -0.31704128 0.24764703 -0.20808245 0.15268873 0.2634632 -0.29294306 0.6447762
0.19126655 -0.15895751 -0.13069327 -0.0123458635 -0.04851805 0.12609525 -0.46719453 -0.16441405
-0.09512517 -0.084341794 -0.21722245 -0.32877213 0.142062 -0.09051594 0.38098457 -0.13893758
-0.0022497869 0.008777122 0.15312235 -0.34875402 0.47980857 -0.035167325 -0.52831125 0.13044152
0.0610132 0.15659922 -0.22395152 0.1526659 0.3095722 0.42478588 -0.2386671 0.60157955
0.32071123 -0.64105886 -0.28696507 -0.5630879 0.29789436 -0.36180797 -0.2471674 0.20252308
-0.17540403 0.028429756 -0.025670301 0.2597859 -0.028925834 0.13598406 -0.34692478 0.11151191
-0.28952342 0.39293706 0.2772778 -0.006011342 0.290754 0.30458844 0.0255874 -0.2295493
-0.05559249 0.118492134 -0.17173201 -0.24789007 0.017311696 0.6942424 0.030773407 0.17685676
0.045101177 -0.38382238 0.27017123 0.61645377 0.2199108 -0.14571433 0.0591375 -0.4337522
0.028621977 0.36862177 -0.37396234 -0.08003726 -0.2846295 0.1930017 -0.62626034 0.028818738
0.040067155 0.11140179 0.0017366345 0.60165244 0.03528535 0.13177893 0.3279115 -0.36130083
-0.0638913 0.3630377 0.11979426 -0.6780842 0.10143203 0.28117633 0.117814384 0.002358377
-0.13192938 -0.002618083 0.20566003 0.14734064 -0.3194551 -0.014675956 0.035673816 0.37162688
0.13289836 0.29284668 -0.21559262 0.034422774 -0.14434576 0.06304189 0.24693456 0.0993892
-0.87613225 -0.43719602 0.1678663 -0.1315769 0.45254257 -0.3904854 0.07554528 0.35478798
0.31179112 0.0066802013 0.19571765 -0.52674985 -0.26413918 0.21321277 -0.4083273 -0.12315709
0.030676892 0.3287354 -0.21837328 -0.11096399 0.050792836 0.0914648 0.35891238 -0.45971835
0.099314004 -0.38355651 0.30422488 0.2847072 0.6554769 0.009433831 -0.050503686 0.19215362
-0.31291255 -0.59111774 -0.21143937 0.0004331846 -0.12997179 0.038325787 0.09879193 -0.07753696
0.22205886 0.017113166 0.5120306 -0.4138864 0.19914274 -0.4334691 0.15750758 0.5043415
-0.004175006 -0.036769334 -0.14160743 0.22077154 0.09087035 -0.058588482 -0.055598035 0.22574869
-0.5371636 0.057628572 0.0019870338 0.3952088 -0.39446017 -0.20683174 0.2532871 -0.2409125
0.46651667 -0.20783818 -0.21700458 0.10440283 0.078385524 0.023300935 -0.19385225 -0.15696295
00000000: a8dd ab3e 33ee 22be c24f 793e ff78 abba
00000010: 418e 2ebf 4d32 27bf 3095 c33e 05b6 adbe
00000020: cc3b 81bc c881 903c b109 883e 0a7e f43a
00000030: 8d3e 1bbe acbb d9be 5b96 91be 6b53 db3e
00000040: 448d 083e e394 b83e e427 e9ba 1b54 01bf
00000050: 30e4 4d3e 027f a53e 12f5 783c a646 0c3d
00000060: 3f22 d6bd 4ad8 c33d 25ea 8bbe 7c6d 0bbe
00000070: 8ec6 0a3f 830e fcbe 89a2 623e 09a0 7abe
00000080: 975e ed3e 15a4 a6be 3797 9abe 515b 7f3e
00000090: 1a4c 64be 6882 d0bd 7fdb eebd e4da 1b3d
000000a0: 0850 efbd a637 8e3e 341d c3bc ba12 99bd
000000b0: 3a96 443e 346c 523e a3a8 a33d c398 8dbe
000000c0: 8f8e 3abe 828d bbbe 3296 96bd 0e6f 1abf
000000d0: f039 bf3e af8a d3be 6225 62be 5574 c6be
000000e0: 621e 413e c382 b9be e6c8 853e 47a2 d43d
000000f0: 12e1 943d d372 d0be 92a7 92be b593 723e
00000100: db79 1cbd 3c53 a2be 2f97 7d3e 9113 55be
00000110: 6f5a 1c3e a6e4 863e a2fc 95be 0e10 253f
00000120: 61db 433e c2c5 22be 75d4 05be 4e46 4abc
00000130: ddba 46bd 1d1f 013e 1f34 efbe 285c 28be
00000140: fcd0 c2bd 64bb acbd 906f 5ebe d254 a8be
00000150: b378 113e 6c60 b9bd 6910 c33e a745 0ebe
00000160: 2971 13bb ebcd 0f3c 1bcc 1c3e e38f b2be
00000170: 78a9 f53e 9d0b 10bd 683f 07bf 7692 053e
00000180: fae8 793d 8c5b 203e 8c53 65be 7354 1c3e
00000190: 3f80 9e3e 897d d93e 2665 74be 1e01 1a3f
000001a0: 4334 a43e 6f1c 24bf 16ed 92be 8726 10bf
000001b0: 9c85 983e e53e b9be 7319 7dbe 3662 4f3e
000001c0: 1d9d 33be 85e5 e83c 864a d2bc a802 853e
000001d0: dff5 ecbc 683f 0b3e 20a0 b1be 5b60 e43d
000001e0: 6a3c 94be 0c2f c93e 5bf7 8d3e cbfa c4bb
000001f0: b5dd 943e 04f3 9b3e ab9c d13c f90e 6bbe
00000200: f3b4 63bd 01ac f23d 84da 2fbe e5d6 7dbe
00000210: 42d1 8d3c dfb9 313f 8318 fc3c f019 353e
00000220: 03bc 383d 5e84 c4be e253 8a3e eacf 1d3f
00000230: 4c30 613e 2336 15be 2a3a 723d c514 debe
00000240: a378 ea3c febb bc3e fe77 bfbe 93ea a3bd
00000250: f5ba 91be 3da2 453e 9952 20bf 4615 ec3c
00000260: 751d 243d 9f26 e43d c99f e33a e505 1a3f
00000270: 5f87 103d 0ef1 063e 04e4 a73e 6cfc b8be
00000280: 71d9 82bd 14e0 b93e b156 f53d ed96 2dbf
00000290: 99bb cf3d 58f6 8f3e ab48 f13d 008f 1a3b
000002a0: 7f18 07be 2594 2bbb 8b98 523e 77e0 163e
000002b0: 9e8f a3be 6c73 70bc b51e 123d e145 be3e
000002c0: 8216 083e 00f0 953e 50c4 5cbe e5fe 0c3d
000002d0: 60cf 13be 1b1c 813d 6adc 7c3e 918c cb3d
000002e0: 344a 60bf 28d8 dfbe 25e5 2b3e 18bc 06be
000002f0: a9b3 e73e b4ed c7be 7cb7 9a3d c5a6 b53e
00000300: 16a3 9f3e 97e5 da3b 356a 483e 14d9 06bf
00000310: 403d 87be 7354 5a3e 4710 d1be c939 fcbd
00000320: 1b4e fb3c 0250 a83e 3f9d 5fbe 1741 e3bd
00000330: 260c 503d e651 bb3d 5dc3 b73e 3460 ebbe
00000340: 2465 cb3d 8561 c4be 5dc3 9b3e 24c5 913e
00000350: 56cd 273f 5b90 1a3c f4dc 4ebd ebc3 443e
00000360: 1336 a0be 7e53 17bf 9083 58be 0e1d e339
00000370: 5317 05be 80fb 1c3d 6c53 ca3d b3cb 9ebd
00000380: 6663 633e e930 8c3c 7014 033f ebe8 d3be
00000390: 13ec 4b3e a9ef ddbe ab49 213e 861c 013f
000003a0: 7dce 88bb 719b 16bd 8a01 11be ef11 623e
000003b0: 3c1a ba3d 7afa 6fbd c4ba 63bd aa2a 673e
000003c0: 8e83 09bf f00b 6c3d e538 023b cf58 ca3e
000003d0: aff6 c9be b3cb 53be d9ae 813e c4b1 76be
000003e0: 46db ee3e 88d3 54be 7336 5ebe 27d1 d53d
000003f0: 9788 a03d 9ae1 be3c 3481 46be e5ba 20be

encoder.layers.encoder_layer_0.add_norm1.layer_norm.weight f4 [32]
1.2491671 0.9159952 0.79117787 0.9862812 0.91658914 1.2119241 1.1629916 0.8966777
1.2750336 0.9714785 1.1723214 0.9201168 1.0823001 0.98379344 1.1745702 1.0292894
0.96314317 0.8931911 1.1372416 0.79924566 1.1337126 0.96515864 0.89056927 0.77002627
1.0822957 0.984492 1.1353437 0.91155326 1.2071589 0.8406251 1.137415 0.98993427
00000000: b5e4 9f3f a97e 6a3f a28a 4a3f ed7c 7c3f
00000010: 96a5 6a3f 5420 9b3f e9dc 943f ab8c 653f
00000020: 4d34 a33f d1b2 783f a10e 963f c68c 6b3f
00000030: cf88 8a3f e3d9 7b3f 5158 963f c1bf 833f
00000040: 8d90 763f 2ca8 643f 2291 913f 5d9b 4c3f
00000050: 7f1d 913f a314 773f 59fc 633f 7120 453f
00000060: aa88 8a3f ab07 7c3f f152 913f 8e5b 693f
00000070: 2f84 9a3f 3533 573f d196 913f 556c 7d3f

encoder.layers.encoder_layer_0.add_norm1.layer_norm.bias f4 [32]
-0.0456087 0.025472203 0.062676534 0.19614945 0.24195708 0.05734369 -0.028284812 0.040548228
-0.2300186 0.25232285 -0.21170868 0.13472454 -0.00615662 0.29347086 0.001208155 0.29853827
0.12510483 -0.0016727551 -0.07622781 -0.12135393 -0.07191139 0.068554915 0.18601972 0.14474979
-0.23896506 -0.17323416 -0.14460453 0.09525018 -0.1788588 0.08861015 -0.24107683 0.20799169
00000000: 30d0 3abd 15ab d03c 8e5c 803d 67db 483e
00000010: 99c3 773e 38e1 6a3d 8db5 e7bc e615 263d
00000020: ff89 6bbe 7630 813e 29ca 58be 3bf5 093e
00000030: 79bd c9bb d041 963e f45a 9e3a 02da 983e
00000040: 7b1b 003e 5940 dbba 531d 9cbd 6988 f8bd
00000050: 4746 93bd 8566 8c3d f47b 3e3e 4a39 143e
00000060: 42b3 74be 4c64 31be 3613 14be 8712 c33d
00000070: c326 37be 3d79 b53d d8dc 76be c6fb 543e

encoder.layers.encoder_layer_0.ffn1.dense1.weight f4 [64, 32]
0.38592646 -0.06387183 -0.19742748 -0.06771312 -0.28454813 0.04981313 0.071345896 0.13394465
0.15374312 -0.1975731 0.4181606 -0.1113154 0.28278685 -0.06359563 0.05186832 0.017864702
-0.37830824 -0.30885154 -0.13643248 0.23017266 0.533596 0.26389316 -0.24891752 0.16459475
0.37652767 0.049808808 -0.14536387 -0.15993328 0.27398542 -0.20386931 -0.064641505 0.184707
-0.0024774806 0.21957375 -0.16868868 -0.4878138 -0.53483516 -0.4356548 0.21453448 -0.15072149
0.62904894 0.0515583 0.16221568 0.39458364 -0.12605083 -0.06912422 -0.28698564 0.116870254
-0.22358395 -0.10337895 -0.06600359 0.09210121 0.12478282 -0.010413629 -0.23399906 -0.32950082
0.028000312 -0.07224823 0.05601708 -0.033135645 0.0043889256 -0.10590466 0.115520746 -0.0045805103
0.22787578 0.10814098 0.10012425 -0.41599184 0.12236847 0.12373386 0.45246843 0.069536984
0.300128 -0.2707087 0.38078982 -0.07218709 0.23809454 -0.22748193 0.24548166 0.011614125
-0.023994192 -0.20147368 0.043999374 -0.36554068 -0.27916616 -0.09601429 0.29757935 0.23851922
0.15162887 0.08742442 0.26534373 -0.4928581 -0.15081379 -0.50476605 -0.04539154 -0.320501
-0.18725835 0.1543436 -0.19582649 -0.48571762 -0.29653722 -0.23339254 0.227094 -0.30782428
0.14646713 -0.046028864 0.19414651 0.078973345 -0.20616311 -0.3712454 0.09806953 -0.019699728
-0.0071245623 -0.0994343 -0.06408447 -0.03634349 0.42107713 0.026831789 0.1315774 -0.24096246
-0.035569806 -0.031299613 0.08318433 0.025177928 0.21494468 -0.30898952 0.47669536 -0.2844594
-0.38448453 -0.13568492 0.32885224 -0.099364005 -0.2798667 -0.18501581 0.18344393 -0.24476585
0.15477988 -0.16053544 0.31718093 0.04995521 -0.11796692 -0.118442334 0.39468864 0.03999365
0.062285583 -0.058950704 -0.059527505 -0.025213186 -0.12769476 -0.10884645 -0.0132409325 -0.2722478
0.5101689 0.19630906 0.39954615 0.0022695914 -0.123259634 -0.211687 0.6601419 0.04372663
-0.170555 0.09411244 0.07323525 -0.13523838 -0.605204 -0.11948306 0.29900914 0.06465315
0.46541923 -0.29355267 0.47174382 -0.022735814 -0.37992397 0.18505137 -0.052387677 -0.702559
-0.24147832 -0.20203733 0.023220047 0.006377067 0.38730487 -0.30594677 0.03783508 0.16238815
0.684068 -0.06716898 0.37979838 -0.32278487 -0.17767558 -0.012363793 0.27209434 -0.19086166
-0.016734757 0.0635198 -0.14021282 -0.34571356 -0.44139668 -0.14024 0.12902103 0.17659245
0.20829551 -0.35332826 0.47049707 -0.065026686 0.1972692 0.1432922 0.19729301 -0.22015592
-0.3520121 0.39703622 0.1605077 -0.18418963 0.149387 -0.08299419 -0.31571254 0.07014723
0.15070757 0.20450507 0.43789053 -0.15718448 -0.056542184 -0.27243975 0.5360346 -0.31986558
0.28595522 -0.44864956 -0.3056139 0.061478965 -0.25622976 0.38171363 0.35065803 -0.045139324
0.1477454 -0.13577743 0.31636003 -0.47603482 -0.056344543 -0.44252723 0.078846976 -0.1683758
-0.34110022 0.058569483 -0.014174748 -0.005310341 0.3208697 -0.034787662 -0.38447696 -0.15689413
0.45086768 0.30250293 0.3885204 -0.08044777 0.1822921 -0.023548577 -0.16645272 -0.16073012
00000000: 2798 c53e 3ccf 82bd 6e2a 4abe 2dad 8abd
00000010: 4bb0 91be da08 4c3d cc1d 923d c928 093e
00000020: d66e 1d3e 9a50 4abe 2519 d63e 54f9 e3bd
00000030: 70c9 903e 6d3e 82bd e073 543d ff58 923c
00000040: 9eb1 c1be ca21 9ebe f5b4 0bbe 62b2 6b3e
00000050: bf99 083f 011d 873e 3ce4 7ebe 878b 283e
00000060: 3cc8 c03e 5204 4c3d 44da 14be 8dc5 23be
00000070: d147 8c3e 1ec3 50be c462 84bd d523 3d3e
00000080: 3a5d 22bb f1d7 603e babc 2cbe bbc2 f9be
00000090: f5ea 08bf 250e dfbe edae 5b3e bc56 1abe
000000a0: 5a09 213f cc2e 533d de1b 263e de06 ca3e
000000b0: 7813 01be 0091 8dbd c8ef 92be ac59 ef3d
000000c0: 31f3 64be 58b8 d3bd e42c 87bd 8f9f bc3d
000000d0: 238e ff3d ed9d 2abc 739d 6fbe 55b4 a8be
000000e0: e960 e53c e1f6 93bd 2a72 653d 3eb9 07bd
000000f0: fad0 8f3b 8be4 d8bd 2496 ec3d 1b18 96bb
00000100: 4558 693e 0579 dd3d f10d cd3d e2fc d4be
00000110: 529c fa3d 2e68 fd3d f1a9 e73e 6869 8e3d
00000120: 61aa 993e 559a 8abe e2f6 c23e d3d6 93bd
00000130: 0ecf 733e 06f1 68be 8b5f 7b3e 2c49 3e3c
00000140: 788f c4bc 1e4f 4ebe b038 343d 2628 bbbe
00000150: deee 8ebe 24a3 c4bd 525c 983e 623e 743e
00000160: 9944 1b3e 930b b33d 22db 873e e657 fcbe
00000170: ee6e 1abe 5938 01bf 7bec 39bd b518 a4be
00000180: a7c0 3fbe 400c 1e3e bd86 48be fbaf f8be
00000190: bad3 97be 74fe 6ebe 548b 683e 259b 9dbe
000001a0: 7bfb 153e c388 3cbd 58ce 463e c7bc a13d
000001b0: 6c1c 53be e113 bebe aed8 c83d 5361 a1bc
000001c0: 2975 e9bb 36a4 cbbd b83e 83bd e9dc 14bd
000001d0: 6c97 d73e 57ce db3c 3abc 063e ddbe 76be
000001e0: a5b1 11bd 0634 00bd 8c5c aa3d f141 ce3c
000001f0: 751a 5c3e e033 9ebe 6a11 f43e aaa4 91be
00000200: 28db c4be fdf0 0abe 525f a83e 5b7f cbbd
00000210: b04a 8fbe c974 3dbe bad8 3b3e e6a3 7abe
00000220: 9e7e 1e3e 6763 24be 8a65 a23e d69d 4c3d
00000230: a498 f1bd e591 f2bd a114 ca3e 62d0 233d
00000240: 2b1f 7f3d 4b76 71bd 1dd3 73bd e28b cebc
00000250: 6ac2 02be e3ea debd 7ff0 58bc 1064 8bbe
00000260: 6e9a 023f 3e05 493e 5091 cc3e 6dbd 143b
00000270: 8c6f fcbd 7ac4 58be 0fff 283f b21a 333d
00000280: f8a5 2ebe 06be c03d 5dfc 953d ee7b 0abe
00000290: a6ee 1abf 89b3 f4bd ba17 993e df68 843d
000002a0: 6e4b ee3e 894c 96be 6888 f13e 7540 babc
000002b0: 6585 c2be 1b7e 3d3e 7694 56bd e8da 33bf
000002c0: 1846 77be e0e2 4ebe f837 be3c b7f6 d03b
000002d0: d34c c63e 0ea5 9cbe f5f8 1a3d 1449 263e
000002e0: 151f 2f3f e48f 89bd ef74 c23e 0f44 a5be
000002f0: 96f0 35be 8291 4abc f34f 8b3e 3d71 43be
00000300: 5417 89bc ab16 823d f393 0fbe 5e01 b1be
00000310: bffe e1be 139b 0fbe 171e 043e a7d4 343e
00000320: 6b4b 553e 71e7 b4be fee4 f03e b62c 85bd
00000330: f000 4a3e 31bb 123e 2e07 4a3e 8e70 61be
00000340: ee3a b4be 5548 cb3e 215c 243e 359c 3cbe
00000350: e8f8 183e dcf8 a9bd 13a5 a1be 5aa9 8f3d
00000360: 1653 1a3e c769 513e 3033 e03e f8f4 20be
00000370: c798 67bd 397d 8bbe 9039 093f 6cc5 a3be
00000380: b968 923e 65b5 e5be 6d79 9cbe 5ed1 7b3d
00000390: 8c30 83be f86f c33e 7389 b33e 03e4 38bd
000003a0: 924a 173e 3d09 0bbe f1f9 a13e d6ba f3be
000003b0: 89c9 66bd ee92 e2be 867a a13d b56a 2cbe
000003c0: b0a4 aebe 8ee6 6f3d 343d 68bc 5e02 aebb
000003d0: 0949 a43e 827d 0ebd 2ada c4be dba8 20be
000003e0: 21d8 e63e aae1 9a3e 25ec c63e cdc1 a4bd
000003f0: c8aa 3a3e f2e8 c0bc 9572 2abe 7096 24be

encoder.layers.encoder_layer_0.ffn1.dense2.weight f4 [32, 64]
-0.21158066 -0.24390368 0.087197416 -0.46264008 -0.28591082 0.09540077 -0.35622087 -0.11796752
-0.254133 0.047256604 -0.101450436 -0.2189555 0.2682965 -0.1657764 -0.264449 -0.10400766
-0.12885767 -0.18230048 -0.27840984 0.18047246 -0.070812345 -0.18165503 -0.32862818 -0.25442705
-0.24955523 -0.57238936 0.035119604 -0.1706055 -0.0495566 -0.036248732 -0.20800935 0.3794991
-0.27766538 0.1226253 0.049060434 -0.061103262 0.2575341 0.22408266 -0.16555558 -0.23271798
0.03498752 -0.24674822 0.17979684 0.04636348 -0.07386595 -0.2965264 0.034744296 0.24269637
0.5209497 0.2532291 -0.10389789 0.03392887 -0.017221909 -0.3049935 0.31580457 -0.22232905
-0.15223254 0.37041607 0.19028749 -0.28456736 0.12095664 0.41104186 -0.15179153 0.14808154
0.21578136 0.45378426 -0.32545868 0.030223876 0.37163523 0.2668115 -0.13827272 -0.3063509
-0.22105823 -0.27551013 0.039501246 0.07331792 0.41096005 -0.091556296 -0.01712273 0.39516643
0.04222511 -0.5166807 0.06833602 0.009673045 0.08062653 -0.4429139 -0.0076742005 -0.06862368
-0.0022659341 -0.0037262763 0.0024096465 -0.12454544 0.0013147971 -0.3172251 0.25093773 -0.28392264
0.020261599 0.082907215 0.1245315 0.09917947 -0.1842431 -0.18016651 0.37991646 0.2597386
-0.2327632 0.16268995 0.1290112 -0.17351742 0.33462423 0.13272181 -0.051441398 -0.10842769
-0.011722081 0.17459644 0.05960854 -0.17017455 -0.16258068 0.03575283 -0.054046717 -0.11630142
0.00071333424 -0.010554346 0.14223622 0.00574964 -0.3705426 -0.18526483 0.09581137 -0.046356104
-0.22366805 0.0057380865 -0.25509998 0.24752063 0.3096725 0.31461936 0.3743961 -0.1945175
-0.10168292 -0.31011164 0.12340823 0.05239667 0.10095078 0.17179066 -0.051010698 -0.007835538
-0.3683753 -0.21506318 0.18925476 -0.041545797 0.43007383 0.03606033 -0.099637575 0.16327015
0.046822105 -0.12517627 -0.12990527 -0.15393825 -0.19235373 -0.034787897 -0.024289252 -0.38415912
-0.101704605 0.08954794 0.3783995 0.14706166 -0.06972001 -0.11499982 -0.23543438 -0.0012728733
-0.35074964 -0.0016536426 0.26069137 0.11422609 0.050827418 -0.26886502 0.18206906 0.001968531
-0.22960041 -0.2935574 0.21891958 0.32740524 -0.0114124715 0.28701764 -0.14702527 0.15984885
-0.005812333 -0.04918953 -0.1209901 0.065029085 0.037042294 -0.083562315 -0.13889219 0.09939681
-0.117069684 -0.104085624 0.14241357 0.16941768 -0.42411116 -0.17319241 0.07448268 0.013943326
-0.13960792 0.14461127 0.24374191 0.122986 -0.21266417 -0.019147111 0.1496011 0.30216324
0.08780049 -0.26963535 -0.5172352 0.2572339 0.18684709 0.14839984 0.09071651 0.032416694
0.21050273 -0.18491016 0.04909688 0.0677818 -0.008266691 -0.13210534 0.08822789 -0.25789744
-0.20871256 0.19723965 0.25471008 0.20152465 -0.2823822 0.088937595 0.050554372 -0.05194648
-0.12759647 -0.051740184 -0.25691235 -0.091879025 0.18869133 -0.064032555 -0.030311719 0.18180414
0.06674391 0.30052724 -0.055033904 0.14516701 -0.28879997 -0.17841046 -0.4583493 -0.19210373
-0.03582219 0.08095412 -0.34552896 -0.044489354 -0.09014965 -0.2359643 0.20766023 -0.49740195
00000000: 9aa8 58be e3c1 79be 8f94 b23d 29df ecbe
00000010: e762 92be 7b61 c33d 9562 b6be f598 f1bd
00000020: b81d 82be 2490 413d 3fc5 cfbd df35 60be
00000030: 295e 893e 4ac1 29be dc65 87be f801 d5bd
00000040: 44f3 03be faac 3abe bc8b 8ebe c6cd 383e
00000050: 1006 91bd c703 3abe f441 a8be 4344 82be
00000060: 688b 7fbe 1c88 12bf 93d9 0f3d 35b3 2ebe
00000070: ddfb 4abd 8d79 14bd 6700 55be b54d c23e
00000080: 282a 8ebe f922 fb3d 98f3 483d 6a47 7abd
00000090: 82db 833e ed75 653e 6787 29be 9f4d 6ebe
000000a0: 134f 0f3d 91ab 7cbe aa1c 383e a2e7 3d3d
000000b0: 0847 97bd 4fd2 97be 0950 0e3d 6685 783e
000000c0: f65c 053f 3fa7 813e 6bc8 d4bd 00f9 0a3d
000000d0: f614 8dbc 1c28 9cbe 23b1 a13e 3aaa 63be
000000e0: d9e2 1bbe 2da7 bd3e b9da 423e d0b2 91be
000000f0: 1db8 f73d 1474 d23e 3d6f 1bbe b0a2 173e
00000100: caf5 5c3e 6956 e83e 85a2 a6be 1098 f73c
00000110: f946 be3e 849b 883e 5d97 0dbe 06da 9cbe
00000120: 175d 62be aa0f 8dbe 0fcc 213d b527 963d
00000130: 5b69 d23e de81 bbbd f844 8cbc 4153 ca3e
00000140: 3df4 2c3d 3045 04bf c1f3 8b3d b17b 1e3c
00000150: 861f a53d 9cc5 e2be dc77 fbbb 928a 8cbd
00000160: 1180 14bb 8b34 74bb 29eb 1d3b ae11 ffbd
00000170: 4555 ac3a 546b a2be e97a 803e 4f5e 91be
00000180: a7fb a53c 42cb a93d 5f0a ff3d 9b1e cb3d
00000190: 39aa 3cbe 927d 38be 6984 c23e 75fc 843e
000001a0: 7a59 6ebe 3298 263e 831b 043e 8dae 31be
000001b0: de53 ab3e 3ae8 073e 37b4 52bd 560f debd
000001c0: f90d 40bc 69c9 323e 1628 743d 3d42 2ebe
000001d0: 8d7b 26be 8f71 123d 1760 5dbd 702f eebd
000001e0: 0dff 3a3a 23ec 2cbc 5fa6 113e 7a67 bc3b
000001f0: c2b7 bdbe 10b6 3dbe c038 c43d e6df 3dbd
00000200: 3d09 65be 8f06 bc3b 779c 82be 0c76 7d3e
00000210: 658d 9e3e ca15 a13e d8b0 bf3e 982f 47be
00000220: 223f d0bd f4c6 9ebe 74bd fc3d e49d 563d
00000230: 48bf ce3d e4e9 2f3e 98f0 50bd a160 00bc
00000240: b09b bcbe 8639 5cbe 00cc 413e ed2b 2abd
00000250: a332 dc3e ffb3 133d c90e ccbd 4a30 273e
00000260: 89c8 3f3d 352e 00be e305 05be fda1 1dbe
00000270: 60f8 44be c17d 0ebd 41fa c6bc 81b0 c4be
00000280: 814a d0bd e964 b73d 94bd c13e 5597 163e
00000290: 5dc9 8ebd 0785 ebbd b615 71be 8ad6 a6ba
000002a0: 7595 b3be 0abf d8ba 5779 853e 5eef e93d
000002b0: 6930 503d ada8 89be 5070 3a3e 7802 013b
000002c0: 5f1c 6bbe 284d 96be 742c 603e a9a1 a73e
000002d0: 60fb 3abc faf3 923e cb8d 16be 6baf 233e
000002e0: 6275 bebb f67a 49bd a8c9 f7bd f82d 853d
000002f0: a9b9 173d b822 abbd c139 0ebe 8e90 cb3d
00000300: 3bc2 efbd d82a d5bd ddd4 113e d47b 2d3e
00000310: 1925 d9be 5a59 31be 608a 983d 8c72 643c
00000320: 61f5 0ebe fa14 143e 7b97 793e 15e0 fb3d
00000330: a3c4 59be 67da 9cbc 0831 193e 24b5 9a3e
00000340: bed0 b33d a50d 8abe 8769 04bf 29b4 833e
00000350: d854 3f3e 21f6 173e 94c9 b93d 5ec7 043d
00000360: 078e 573e 1759 3dbe cf19 493d 2fd1 8a3d
00000370: 0471 07bc 9f46 07be d3b0 b43d 220b 84be
00000380: bfb8 55be 31f9 493e 5c69 823e 7a5c 4e3e
00000390: 6694 90be ea24 b63d 1a12 4f3d d5c5 54bd
000003a0: a6a8 02be 84ed 53bd 048a 83be 122b bcbd
000003b0: 4d38 413e 8023 83bd 4850 f8bc dd2a 3a3e
000003c0: 08b1 883d b5de 993e 3b6b 61bd a9a6 143e
000003d0: 97dd 93be 3bb1 36be c2ac eabe d7b6 44be
000003e0: 4aba 12bd 46cb a53d 2ce9 b0be 783a 36bd
000003f0: 61a0 b8bd a0a0 71be e2a4 543e 78ab febe

encoder.layers.encoder_layer_0.add_norm2.layer_norm.weight f4 [32]
1.1097374 0.7898072 0.79137397 0.76816475 0.55787426 0.9789269 1.0793085 1.0325323
0.929976 0.7757716 1.0426257 0.5615791 0.8715853 0.9548147 1.0318704 0.86722696
0.83964485 0.80155224 0.8465616 0.7701252 0.94582677 0.95676386 0.6263757 0.8708148
0.78822446 1.0338016 0.89680165 0.86265 1.1733363 0.7329346 0.9965811 0.83449733
00000000: e00b 8e3f ce30 4a3f 7c97 4a3f 72a6 443f
00000010: d9d0 0e3f f49a 7a3f c826 8a3f 052a 843f
00000020: e812 6e3f f898 463f c274 853f a6c3 0f3f
00000030: 3720 5f3f bc6e 743f 5414 843f 9602 5e3f
00000040: f7f2 563f 8732 4d3f 43b8 583f ed26 453f
00000050: b421 723f 7aee 743f 285a 203f b8ed 5e3f
00000060: 14c9 493f 9c53 843f cb94 653f a1d6 5c3f
00000070: e22f 963f 9aa1 3b3f f01f 7f3f 9ea1 553f

encoder.layers.encoder_layer_0.add_norm2.layer_norm.bias f4 [32]
-0.07217154 -0.08664241 -0.117691405 -0.18994454 -0.057383228 -0.09891818 0.09201444 -0.073189534
0.20300017 -0.1268448 0.16016006 -0.09962847 0.07986788 0.025073089 0.07870666 -0.11470015
-0.1838508 0.050894007 0.112226345 -0.12182008 -0.0031955226 0.029647814 -0.123389326 -0.082136534
0.06847991 -0.129018 0.08979334 -0.06674356 -0.0068491786 -0.0458738 -0.014446539 -0.10830016
00000000: acce 93bd 9371 b1bd 3108 f1bd d280 42be
00000010: ad0a 6bbd 9d95 cabd 1172 bc3d 65e4 95bd
00000020: 47df 4f3e 9ae3 01be 0001 243e 030a ccbd
00000030: c591 a33d 1466 cd3c f530 a13d eae7 eabd
00000040: 6243 3cbe 3c76 503d edd6 e53d ce7c f9bd
00000050: f96b 51bb f9df f23c 8bb3 fcbd 3337 a8bd
00000060: 323f 8c3d 4b1d 04be 92e5 b73d d9b0 88bd
00000070: 136f e0bb 2ae6 3bbd 2db1 6cbc 79cc ddbd
