20.transformer/transformer.pt (torch, 273642 bytes, 68 tensors)

src_embedding.weight f4 [184, 32]
00000000: a0ab f43f 0629 bc3f e9cf 6d3f ae15 08c0
00000010: d1a9 273f 495d 9bbf 6cd4 83bd e171 cfbf
00000020: 02c0 45bf 25d4 d03f ab8f d3be 1f61 b5bf
00000030: 4149 35bf 4ba4 09bf f8d8 4bbf 31cc 3c3f
00000040: 3ded d13f ab56 0dbe 329c 06bf 3603 d83e
00000050: e9be 47bf a812 8e3f 2106 4d3f ea42 d53f
00000060: 0644 a03f 96c7 a83f 75c0 1a3f 0cb6 ad3f
00000070: 331b 57be edf1 173c c625 6bbe 8ab6 543f
00000080: b80d b0bf a769 63bf b1ed 74be f7aa db3f
00000090: 4b70 9d3e 71ab d0be 9ec2 943e bcf6 42bf
000000a0: 513c c9bf b763 7b3f ca7b 65bf 632e 1ebf
000000b0: f91e a1bf efdf 0840 75cb 9fbf acc8 00bf
000000c0: dacc 6ebf db0d 22bf e4e1 c23d 1af3 083f
000000d0: d63d f1be 5736 993f 8592 4cbf a172 41bf
000000e0: a4d9 b4bf b499 b53c f375 45bd 183b 2d3f
000000f0: 9073 e9bd 1801 ee3f 1c9c 99bf f477 af3f
00000100: 5377 b63f b9c6 5d3f befa 0f40 44f0 fd3e
00000110: 0ef2 a23e 7972 3bbe 0487 89bf c04d a03f
00000120: 3a88 32be 3758 043f adf8 ea3c cab1 dc3e
00000130: 9b02 193f ecb6 20bf 6dbc 0cc0 f1c8 45bf
00000140: 90c2 f53c 4dd1 a1be 675f afbf 7dda 1abf
00000150: 459b 0c3f 2161 0f3f 26ae 8f3f 7e8d 033d
00000160: 4ea8 383f a957 edbe 3c87 86bf 1666 1f3f
00000170: 34d3 dfbf 32bd 5cbf 3361 ad3f 5484 de3e
00000180: 609c 20c0 46db f93e afda 483f 81ad ea3c
00000190: 8a08 243f b44f 153f 0e91 883f 817a e6be
000001a0: c2b6 3dbe ceb4 403f 6a3c cf3e cabf 363e
000001b0: 38a2 873e 2ef7 a23f 49d1 abba f471 9bbe
000001c0: ee7f babf 2395 d1bd 1862 19bf bd40 f43e
000001d0: c0e6 393f d4ad ba3d 8e33 c7be 8925 073f
000001e0: c1d6 4fbc cc9d 763e 5ab7 073e 46a5 433f
000001f0: 4729 8c3f 3006 ae3e ca4f 383f 05a4 d23e
00000200: 2656 f43f c24b 823f 1aef b3bf 76e2 93bf
00000210: 7138 26be d664 d33f fd6f 223f 1dec 0c3f
00000220: e6ee 903f 42e5 e53b e45c eabf 1cc5 723f
00000230: 5f9e b4be 4a0c 873f 7499 32bf 1d5b 1d3f
00000240: 16ce 7bbf 1056 7b3f 3b3e cb3f 6b35 b83f
00000250: e204 903e 596b 2ebe 9f85 3abf bf95 a73d
00000260: a6d4 a33e da23 7d3f 6f17 fabe 3dba cd3f
00000270: 42a4 1dc0 b24d e8be 4b76 96bf 886f 433f
00000280: 5445 f3bf f70f 6a3e f3a5 cb3c 6420 b1be
00000290: c0db 923e 7d18 3bbf 1504 333e e005 8cbf
000002a0: 9713 cdbf ba2b ad3f 4ef8 a43f c733 563d
000002b0: 32ff c5bf 7db7 413f 7288 463f c2b2 0140
000002c0: 7db5 123d 39f7 f63d fa3f 4ebf 058f 54be
000002d0: 2294 6ebf c8a4 cbbf a767 91bf f5c8 05bf
000002e0: 54ce 04bf d329 c0bf 9b9c f6bf 6feb 023e
000002f0: d3ee 823f 9748 0ebf 384b 343f 6fba 353f
00000300: f6e5 df3f ae6f 68bf f57b 7e3f e1cf b9be
00000310: b5f9 99bf d482 be3e 7543 eb3e 0ce8 a93f
00000320: 650a fe3e d7c7 0640 45ad 0cbf a6ef 68bf
00000330: 99ec 543e 99b6 8a3f b0a1 a93f 58ca ea3e
00000340: 879e 50bf dfbe 7ebf 0bc6 05bf bd29 1dbf
00000350: 3168 083e 0e3a f53e bf6d 2bbe ff37 15c0
00000360: ee72 c7be c450 8b3f 81e3 e5bf fd4e c33f
00000370: a5b4 8a3e d29f 09bf 3648 873f f51d d23f
00000380: 427e dfbc 9fdb d43f bcf7 3c3e 5040 8abf
00000390: 280e 1bbf a5b3 c33d bc83 c03e 8f0a 0140
000003a0: df22 cfbd 8e5b 6bbf fd79 04c0 6ce1 87bf
000003b0: fe4f e93c fd3c af3d f363 533e 89d7 c73e
000003c0: abe1 6cbf 89ab 9a3e fa34 0dbf 518c e03e
000003d0: d29c 5ebf 21bb ceb9 975e adbe d646 b93f
000003e0: 0844 9c3f 0050 33bf 2b69 533f b35c 023f
000003f0: 8c62 063f 5f6d 073f d03d 063f d093 453e
1.9114876 1.4700019 0.9289537 -2.1263232 0.65493494 -1.2137843 -0.06437001 -1.6206628
-0.77246106 1.6314741 -0.41320547 -1.4170264 -0.708149 -0.53766316 -0.79627943 0.7374907
1.6400524 -0.13802592 -0.52582085 0.4218995 -0.7802568 1.1099443 0.80087477 1.6661046
1.2520759 1.3185909 0.60449916 1.3571181 -0.2100647 0.009273988 -0.22963628 0.8309103
-1.3754187 -0.8883309 -0.23918797 1.7161549 0.30749735 -0.407558 0.2905473 -0.76157737
-1.5721532 0.9819903 -0.8964201 -0.6178953 -1.2587577 2.1386678 -1.2483965 -0.503062
-0.9328133 -0.6330239 0.095157415 0.53495944 -0.4711749 1.1969708 -0.7991107 -0.75565535
-1.4128919 0.022168018 -0.04820819 0.67668295 -0.11398995 1.8594084 -1.2000766 1.3708482
1.4255165 0.8663135 2.249679 0.4959737 0.31825298 -0.18305387 -1.0744328 1.2523727
-0.17434779 0.51697105 0.028683031 0.43104392 0.597696 -0.62779117 -2.1990006 -0.7725974
0.030000001 -0.31604996 -1.370099 -0.60489637 0.5492442 0.5600758 1.1225021 0.03211736
0.7213181 -0.46355942 -1.051002 0.62265146 -1.7486329 -0.8622619 1.3545288 0.43460333
-2.5095444 0.48800105 0.78458685 0.028647186 0.6407553 0.5832474 1.0669267 -0.45015338
-0.18526748 0.75275886 0.4047578 0.17846599 0.2649095 1.2731683 -0.0013108636 -0.30360377
-1.4570291 -0.10233524 -0.59915304 0.4770564 0.7261772 0.09115186 -0.3890652 0.5279165
-0.012685479 0.24083632 0.13253537 0.7642406 1.0950097 0.33989096 0.7199675 0.41140762
1.908879 1.017937 -1.4057343 -1.1553485 -0.16232468 1.6515148 0.6345213 0.5504778
1.1322906 0.007015855 -1.8309598 0.94832015 -0.35277078 1.0550625 -0.697654 0.6146715
-0.9836134 0.98178196 1.5878366 1.4391302 0.28128725 -0.17033137 -0.7286014 0.08182859
0.31998175 0.9888283 -0.48846003 1.607246 -2.4631505 -0.45371777 -1.175485 0.7634206
-1.9005532 0.22857653 0.024859404 -0.34595025 0.2868328 -0.7308424 0.17482026 -1.0939293
-1.6021603 1.3528969 1.2888277 0.052295472 -1.5468504 0.75670606 0.7755195 2.0265355
0.035817612 0.12058873 -0.8056637 -0.20757683 -0.9319478 -1.5909662 -1.1359757 -0.5225976
-0.5187733 -1.5012764 -1.9266542 0.12785123 1.0229133 -0.55579513 0.70427275 0.709876
1.7492054 -0.9079541 0.99407893 -0.36291412 -1.202933 0.3720919 0.45949903 1.327394
0.49617305 2.1059473 -0.5495189 -0.90990674 0.2079338 1.0836974 1.3252468 0.458575
-0.81491894 -0.99509996 -0.52255315 -0.6139181 0.13320996 0.47895855 -0.16741084 -2.3315427
-0.38954872 1.0884023 -1.7960054 1.525848 0.27090946 -0.5375949 1.0568912 1.6415392
-0.027281884 1.6629523 0.18453878 -1.0800877 -0.60568476 0.09555749 0.37600505 2.0162694
-0.10114073 -0.91936576 -2.0699456 -1.0615668 0.028480526 0.085565545 0.20643596 0.39031628
-0.9253184 0.30208996 -0.5515896 0.43857053 -0.8695804 -0.00039430804 -0.3386123 1.4474742
1.2208261 -0.70043945 0.8258235 0.509227 0.5249412 0.5290126 0.5243807 0.19294667

tgt_embedding.weight f4 [201, 32]
00000000: 4c34 59bf 2eac 663f 780d be3e 9386 ce3f
00000010: cbaf 2a3f 5e42 86be 5a10 4fbf 7a22 803e
00000020: 341a 28be 3cb5 aebe dd46 2ebf 81dc 9bbf
00000030: a8ba 8abf deea 70bf 8d97 253d 6c4e 833e
00000040: aabb b8bf d6ca e0bd e1b0 09bf 8d0e aa3e
00000050: e6d9 6c3f 7488 1f3f 86ff b2bf 034a 97bc
00000060: 175a aebf 9e56 0fbf dbb9 cabe 6de4 be3f
00000070: 7b5a ba3f be79 efbe 071a 98bf 05ff 8d3e
00000080: c904 ddbe a5d1 6dbf 7330 82bf adac 313e
00000090: a4f0 c53f 3a5f 403e bbad 6d3f 37f8 43bf
000000a0: 79e0 3340 8d02 ce3e 8b00 28bc 2bcb b1bf
000000b0: 92ca c93f 3796 46bf 688a 43bf bd48 873e
000000c0: 3350 f0bd b314 743f e3ea 8f3e dae2 e13f
000000d0: 8302 4ebf 34dc 703f 36f9 c5bf 1956 ff3d
000000e0: 965e 8a3f 045f 833f a73d 9d3c 5bb4 803f
000000f0: 7883 243f 2e87 4c3f 12d8 fd3e 90a7 ca3f
00000100: cc1c d73f bd73 ed3f 37af a73f d5fa 063f
00000110: 4f45 0dbf 8532 96be 690a bf3e 52d8 f33e
00000120: be57 f53e 08ba d1be e344 eb3f 8140 b43e
00000130: ab97 213e 7f8d bb3f 6729 5f3f 306b fdbf
00000140: 6431 f13f 4902 d8bf b4d2 303f d644 00bf
00000150: 46d6 133f 9ae9 d43f 80e4 793e 157a 963e
00000160: 3d87 72bf b73f e43e 0308 91bf 9b9f 603f
00000170: d322 ebbe 3721 0a40 9b7a 30bf a319 49be
00000180: 4725 c3bd 409b 91bf 3702 cbbe aca4 843e
00000190: 2e15 3bbd b472 e53e 464c 893f 2011 b43e
000001a0: e2fa 973f 6c58 c53f a95a 8d3f 9aa8 b83c
000001b0: b596 c73f 6c87 0b3e 686a 0f3f 6c45 80bb
000001c0: 2055 d6be 6ce3 393e 2923 353f 209c b4be
000001d0: 06a6 013f d988 5d3d e94b 0140 e9c4 29bf
000001e0: fa56 053f 0f14 71bf 23a2 1440 b857 c43e
000001f0: 8a6b 17be 5b22 f1be c4e6 d73f c0f6 573f
00000200: 2f52 98bf c308 bf3f 63e8 f7be 60fe b8bf
00000210: 8a70 8f3f 22cf 86be a4c1 b2bf 92d7 003c
00000220: da71 7cbe 79ee a23d c1a4 153f 4737 a43f
00000230: 69d4 b13e caf4 883e 9320 36be 6020 3e3e
00000240: 9935 373f de91 dbbf 1b63 923e a6ab cdbd
00000250: 53b0 8fbf 5684 43bf e559 8a3f 7c83 cebe
00000260: e8af 853f 1f04 613e f65c a1bf 09df 963d
00000270: 7e42 373e 7c2b 593e 40b2 723f da57 123e
00000280: 274e 753f eb66 273e 54cc 893f 5ba3 7fbd
00000290: 868d d13f 178e 6a3f b35b 2e3f c5b8 0d40
000002a0: c7f2 28bf 5545 a3bf 8496 9ebf db91 b7bf
000002b0: c75d 24bf 155b cabe 99d0 ec3e e14b da3e
000002c0: e04c 24bf 79ac 733f d4d0 1940 c306 8f3f
000002d0: 2b16 8bbd 250f 8f3d 98f0 b13e 3699 da3f
000002e0: 41a2 dfbe 675e ed3f 1f1c b3be 9f73 f8be
000002f0: 2920 ff3e 4c60 403f 46af c6bf c324 0140
00000300: 04b1 e33f e967 5bbf 7015 42bf 7b41 3a3f
00000310: 34a0 96ba 1165 3dbf 5430 58be 1412 2e3f
00000320: 55a7 a6bf baf8 08bf 0f3e 583f af8d 353e
00000330: 00be 983d 3905 993f 00aa 62bf 7f8d 4e3e
00000340: 6512 b7bc 70c7 1ac0 a34d 9bbf bccc 073b
00000350: 041f 683f 61c1 34bf 5969 b33f 87e2 343f
00000360: fef0 dfbf f65e 273f 81e7 4fbf d8a5 eabd
00000370: 5cb8 6c3f e472 e7be 7374 02bf d63f 66bf
00000380: 5e27 743f b9c2 ea3e f4e1 b7bf e65c 8d3e
00000390: 2931 15bf a8a9 a3bd f57f 41bf 073e 83bf
000003a0: 712a 4b3f 2dba 723f a1a8 28bf 0092 6a3e
000003b0: 92ed 343f f4f0 1440 8297 8cbf 4a4c 04bf
000003c0: 900f 5c3d a055 d9be 35e5 863f d920 05bf
000003d0: baf0 d03f 0d92 1b3f 6ba7 2e3e 74f2 73bf
000003e0: 1449 3f3e fb41 b53f c38c c93e 2ede 023f
000003f0: 782e 9bbf c449 0f3e aae8 813e a6ee 553f
-0.84845424 0.90106475 0.3711965 1.6134819 0.6667449 -0.2622251 -0.80884326 0.25026304
-0.16416246 -0.34122646 -0.6807688 -1.2176667 -1.0838213 -0.9410838 0.040427733 0.2564577
-1.443227 -0.10976188 -0.5378552 0.33214226 0.92519987 0.62317586 -1.398423 -0.018467909
-1.3621243 -0.5599154 -0.3959492 1.491346 1.4558862 -0.4677257 -1.1882943 0.27733627
-0.43167713 -0.9289802 -1.0171036 0.17351027 1.5464063 0.18786326 0.92843217 -0.7655062
2.8105757 0.4023632 -0.010254036 -1.3890127 1.5764945 -0.7757296 -0.76383066 0.26422682
-0.11734047 0.95344085 0.28108892 1.7647355 -0.8047258 0.94086003 -1.5466678 0.12467594
1.0810115 1.0263371 0.019194437 1.005504 0.64263105 0.7989377 0.4957891 1.5832386
1.6805663 1.8550946 1.3100346 0.5272649 -0.5518388 -0.29335418 0.3731263 0.47625977
0.47918504 -0.40962243 1.8380398 0.35205463 0.15780513 1.4652556 0.8717255 -1.9798336
1.8843198 -1.6875697 0.6907151 -0.50105035 0.5774883 1.663379 0.24403572 0.29390016
-0.9473761 0.4457986 -1.133057 0.8774354 -0.45925006 2.1582773 -0.6893708 -0.19638686
-0.095285945 -1.1375504 -0.39650127 0.25906885 -0.045674495 0.44814074 1.0726402 0.35169315
1.1873438 1.5417609 1.1043292 0.022541333 1.5592867 0.13625878 0.5602174 -0.0039145257
-0.4186182 0.18153161 0.70756775 -0.35275364 0.50643957 0.054085586 2.0202582 -0.66316086
0.5208584 -0.9417123 2.322396 0.38348174 -0.14787117 -0.47096524 1.6867299 0.84360886
-1.190008 1.4924549 -0.48419484 -1.4452629 1.1206219 -0.26329905 -1.3965344 0.007863896
-0.24652806 0.07955641 0.5845452 1.2829369 0.3473237 0.2674926 -0.17785864 0.18567038
0.7156616 -1.715389 0.28591236 -0.10042505 -1.1225685 -0.76373804 1.0808684 -0.4033469
1.0444307 0.21974228 -1.2606494 0.07366759 0.17896459 0.21207994 0.9480324 0.14291325
0.95822376 0.16347854 1.0765481 -0.062411647 1.6371315 0.9162306 0.6810867 2.2144024
-0.6599545 -1.2755533 -1.2389684 -1.4341387 -0.6420559 -0.39522615 0.46252897 0.42636016
-0.641798 0.9518505 2.4033709 1.1173939 -0.067913376 0.069853105 0.3475387 1.7078006
-0.43678477 1.8544434 -0.34982392 -0.48525712 0.49829224 0.7514694 -1.5522239 2.0178688
1.7788396 -0.8570543 -0.7581396 0.72756165 -0.0011491836 -0.7398234 -0.21112186 0.67996335
-1.3019816 -0.53504527 0.84469694 0.17729829 0.074581146 1.1954719 -0.8854065 0.20171164
-0.022347638 -2.4184227 -1.2133068 0.0020721396 0.90672326 -0.7060757 1.4016525 0.70658153
-1.749542 0.65379274 -0.8121262 -0.114574134 0.9246881 -0.45204842 -0.5095894 -0.89941156
0.9537257 0.45851687 -1.436583 0.27609938 -0.5827814 -0.07991344 -0.7558587 -1.0253304
0.79361635 0.9481533 -0.6588231 0.22907257 0.70675004 2.3272066 -1.0983737 -0.5167891
0.05372578 -0.4244814 1.0538698 -0.52003247 1.6323464 0.6076973 0.17056052 -0.9529183
0.18680221 1.4160761 0.39365205 0.5112027 -1.2123556 0.13992983 0.2537282 0.83567274

transformer.encoder.layers.0.self_attn.in_proj_weight f4 [96, 32]
00000000: 384e 023e ee8e e6bd 1667 9abd 3651 1c3e
00000010: 41dd 503e 8999 11be 983a 603e 17fb 3ebe
00000020: 6b82 e13d d9fe 1ebe 1f31 76bd 5a6b 24be
00000030: e64f 503e 203b b5bd c1c5 51be b2a7 8dbd
00000040: c463 323e 89d6 fe3d 08ac d03d ab79 403e
00000050: a76b abbd 9ec2 1a3e f86c 5fbe b486 11be
00000060: 636e 123e 26bc fdbd 5223 f53c e573 ca3d
00000070: 2595 ed3d 268f 473e edec 8a3d c715 783c
00000080: 2f7e 39be 5927 0fbe f041 3cbd 4c8d 8f3d
00000090: 0115 00be 2ad5 4ebd 99f7 6b3c e431 b7ba
000000a0: 1348 0ebe 2d9b 063e 1a89 243b 7afa 413e
000000b0: 5c65 24be 90e2 473c 25e7 663d f22a df3d
000000c0: 0eb9 14be 6132 c1bd f56c 16bc 30e4 01be
000000d0: 1121 28be d954 ed3c e326 fb3d 98c4 4ebe
000000e0: 96aa 5fbd b1d6 55be 56f7 f63c 5a27 9f3d
000000f0: ea08 58be 52bb 7f3d 9682 b7bd a39b 04bd
00000100: bc0c 29be acb7 2bbd b2e7 a63d 9ccd fcbd
00000110: 8b7b c6bd bbac 16be c9fe b0bd d6c5 203e
00000120: 07cf 253e 3c3d 03be bd0d 443e 0df6 913d
00000130: b3eb 933d 6f2c 46be 1cf9 11bd d23f 313e
00000140: 4a13 193e c189 ce3d 1fde e8bd f432 6abd
00000150: 698c 843d 1e99 683d 8df9 43bd 4b92 0dbe
00000160: bb28 4ebe 237b 4abe 05d4 dabd 3423 df3d
00000170: 373f debd 4519 353d 336f 14be f8c0 fcbc
00000180: 3fbd 20be 9de3 dcbd d3f6 d43d 7838 fa3c
00000190: 7f7a 2a3e 957e ed3c 8d31 87bc 9047 173e
000001a0: bad7 32be 6031 cb3d 3427 c5bc 6958 05bd
000001b0: 4d99 21be dffb dcbc 8bd5 e4bd 3f13 ca3d
000001c0: 2191 2ebe 6c8d 47bd 19c8 4e3e c5eb 31bd
000001d0: e84e 54be ff1f f13c 127f c73c a988 08be
000001e0: 96d6 55be 04b7 77be 7597 b8bd b339 abbc
000001f0: aba8 2ebe 1f15 54be 4a04 843d 1f62 4dbe
00000200: 8bbe a73c 2749 8f3d 3069 3a3e f170 ae3c
00000210: a131 3f3d e2d4 363e 312a 673d 41ba 443e
00000220: 99af f2bc 5f0e 573e 4565 14be ea4d 233e
00000230: db51 6f3d 04aa f5bb 301f 563e 6266 e03d
00000240: 7648 043d fb57 34bd 91c8 223e ce6d c43c
00000250: 1eec 213d 9621 51bc 4fb8 6dbd 4016 fcbd
00000260: 678b c63d f926 a23c 496b 7d3c 68f7 953c
00000270: 9ea5 94bd d1cf 84bb 7b70 eabd 908b 4a3b
00000280: 1a5b db3d a614 4fbe 7128 3d3e db44 76bd
00000290: 34b7 373e f65c 3f3e baf8 e23d 0498 493e
000002a0: cf8e 2fbe b56f 3fbe e6a9 25bc 9a31 ccbd
000002b0: 4dd8 babd c484 74bc cf17 16be af50 a1ba
000002c0: 6c5f ddbd 0473 843d e195 873c 9b47 0abe
000002d0: caa8 fdbd 49c6 e3bb 5a2b 013e bf6d 4e3e
000002e0: 72ae c13d 9841 763c 477f b9bc 9707 533e
000002f0: 6b03 0abe 70e9 00be edbe 2c3d 90fb 0dbe
00000300: e549 563e f760 f3bd 1d3e dcbd 0184 133e
00000310: c4f2 f4bc bc98 553e afa4 dfbd 3f5e f23d
00000320: 9371 b23c 8ab2 8d3d e6e7 57be 076d 08bd
00000330: cfe7 dcbc 973a e2bd 71f4 ef3d 2a01 523e
00000340: cebf 633e d3b5 253e 2231 2fbd c476 f9bd
00000350: b2f9 f63d 3807 373e d1d3 b7bd 76ab 1c3e
00000360: 0f05 e3bd 3b83 40bd 97f7 343e c18b 623e
00000370: da86 3dbe 697b 003e e7ab 423e fba6 723d
00000380: 549b b73d 51cd e23d 679e 8b3c 1fa0 273e
00000390: 56f7 11be 3b71 97bc f782 adbd bc86 0b3e
000003a0: 7513 24be c361 e93d 1a5b 8cbd f1d2 273e
000003b0: 5f4b 8cbb 8c3c 253d c839 a83d 48a8 ad3d
000003c0: ed9e c23d 270e 133e fae9 3cbd 90a6 a7bd
000003d0: 7059 373d 9da6 43be 2f7b 603d 2c71 d33d
000003e0: ecb9 2e3e 5e4c 3a3e 8314 f6bd cce8 0fbe
000003f0: 7b0a 4fbd da4f 30be 7b9d 193d ad49 063e
0.1272515 -0.112577304 -0.07539193 0.15265355 0.20396902 -0.14218725 0.21897352 -0.1865047
0.110112034 -0.15526904 -0.06010544 -0.16056576 0.20342979 -0.08849168 -0.20485593 -0.06916751
0.1742087 0.12443263 0.10189062 0.18796413 -0.083701424 0.15113303 -0.21818912 -0.14211541
0.14299922 -0.12389402 0.029924069 0.098853864 0.11600713 0.194882 0.06783471 0.015141911
-0.18114541 -0.13979854 -0.04596132 0.07009372 -0.12508012 -0.050496258 0.014402294 -0.001397666
-0.13894682 0.13145132 0.0025106133 0.18943205 -0.1605429 0.012200013 0.05637278 0.10896863
-0.14523718 -0.09433437 -0.009181251 -0.12684703 -0.16418864 0.028971123 0.122632764 -0.20192182
-0.054606043 -0.2088268 0.030147236 0.077711776 -0.2109715 0.062434502 -0.08960454 -0.03237499
-0.16508764 -0.04192321 0.08149661 -0.123439044 -0.09691533 -0.14714329 -0.086423464 0.15700468
0.16192256 -0.12816328 0.19145866 0.071270086 0.072226904 -0.19352888 -0.03563796 0.17309502
0.14948764 0.10084868 -0.11370491 -0.0571775 0.064720936 0.05678665 -0.047845412 -0.13825338
-0.20132725 -0.19773535 -0.10684971 0.10895386 -0.10851901 0.044213552 -0.14495544 -0.030853733
-0.15697192 -0.10785601 0.103986405 0.030544505 0.16648291 0.028991023 -0.01650312 0.14773393
-0.17465106 0.09921527 -0.024066545 -0.032555018 -0.15781136 -0.02697557 -0.111735426 0.09866952
-0.1704755 -0.048718855 0.20193519 -0.043437738 -0.20733225 0.029434202 0.024352584 -0.13333382
-0.2088264 -0.24190909 -0.09013263 -0.020901537 -0.17056529 -0.20711182 0.064461306 -0.20056961
0.0204766 0.069963746 0.18204188 0.021294089 0.04667819 0.17854646 0.05643672 0.19211675
-0.029624747 0.21001576 -0.14491756 0.1594769 0.058427673 -0.007497074 0.20910335 0.10957028
0.032295667 -0.044029217 0.15896823 0.02397814 0.03953182 -0.012764355 -0.0580371 -0.12308931
0.09694558 0.019793974 0.015467473 0.018306449 -0.072581515 -0.004053094 -0.11447235 0.003090594
0.107107356 -0.2022272 0.18472458 -0.06012426 0.1794098 0.18687806 0.11082597 0.19686896
-0.17144321 -0.18694957 -0.010111308 -0.09970398 -0.09123287 -0.014924232 -0.1465752 -0.0012307371
-0.10809216 0.0646725 0.01655096 -0.13503878 -0.123857096 -0.0069511277 0.12614194 0.20159052
0.09457101 0.015030287 -0.022643698 0.20608364 -0.13477866 -0.1258905 0.04217427 -0.13865495
0.20926626 -0.11883729 -0.10754035 0.14405824 -0.029900916 0.20859045 -0.10920083 0.11834382
0.021782672 0.06918819 -0.21084556 -0.0333071 -0.026966004 -0.110463314 0.117165454 0.20508257
0.22241136 0.16182642 -0.042771466 -0.12180856 0.12059344 0.17873847 -0.08975948 0.15299782
-0.11084949 -0.04700015 0.17672573 0.22123624 -0.18508473 0.12547077 0.19010888 0.059241276
0.08965173 0.11074317 0.017043306 0.16369675 -0.14254507 -0.01848661 -0.08472245 0.13625616
-0.16023047 0.113956 -0.06853314 0.16389062 -0.004281446 0.040340945 0.08214146 0.08479363
0.09502969 0.14360867 -0.046121575 -0.08186066 0.04476303 -0.19106527 0.054804977 0.1032432
0.17063111 0.18193194 -0.12015631 -0.14053649 -0.050547104 -0.17217961 0.0375037 0.13114043

transformer.encoder.layers.0.self_attn.in_proj_bias f4 [96]
00000000: 9400 023d f3da b13b 6a65 4dbc 207c d6bc
00000010: 5201 1f3c d7da 113c 39f8 713a 4fac 293c
00000020: 84da f3ba 9ba5 523c ad15 47bc c800 05bd
00000030: e999 2fbd 0d43 363c 170b 5d3c e56a ad3c
00000040: e0b8 b439 9375 c0bc 0cee a33c 89ad c33c
00000050: d355 a03c cca7 823c e70c c63c df15 ee3c
00000060: b79b fdba 2b26 a7bc 786b c1bb 394c 0dbc
00000070: abbe 233c 13c0 8ebb bc63 c7bc 4057 ef3c
00000080: 0700 35b4 eb09 b937 7123 e1b5 0c34 a237
00000090: 6f35 6cb8 0b04 12b8 8a3e 65b8 9cbd 30b7
000000a0: e684 d0b8 6f69 b4b7 650f a0b8 c65f 3739
000000b0: 69e2 3738 b8b9 8bb7 939a fbb7 e844 4139
000000c0: ccad ac38 f3d9 8ab8 b36a 8a38 aee7 8f38
000000d0: e0df 7438 f367 4839 df9c 4ab9 492e c5b8
000000e0: eefd 3e38 9bdd d8b8 12a7 d637 2d67 8bb7
000000f0: 2f58 cfb8 a7d0 2b38 fb02 2838 8098 a837
00000100: 4fb3 ffbb 29d8 b73c 4804 f5bc d86f d73c
00000110: 1fd3 0dbd ca27 c63c 69dd 573c 5e3e b0bc
00000120: 4ee2 b8bc de8c abbc 729a b2bc ea7d 123d
00000130: f64b 663c ae39 2c3b 090f d23c a4cc 7b3c
00000140: 3fb1 ffbc d3bb f1bc b4d2 f9bb bea3 d03c
00000150: b51a 9c3c 095c c23c 92b5 eb3c 3ce2 57bc
00000160: 49c3 a4bc 21e5 273c 2db8 20bc 3418 ab3c
00000170: 3e52 103c ca4e 993c afb6 be3c 1d65 16bd
0.031738833 0.005427712 -0.012536386 -0.026182234 0.009704905 0.008902273 0.00092304085 0.010356023
-0.0018604551 0.012856866 -0.012151164 -0.03247145 -0.04287139 0.011124385 0.013491414 0.021169135
0.00034470018 -0.023493564 0.02001097 0.023886459 0.019572174 0.015949152 0.024176074 0.029063163
-0.0019348775 -0.020403942 -0.005902704 -0.00862413 0.009994189 -0.004356393 -0.02433955 0.029216409
-1.6856949e-07 2.2058337e-05 -1.6774121e-06 1.9336141e-05 -5.631655e-05 -3.4812878e-05 -5.46561e-05 -1.0534564e-05
-9.942967e-05 -2.1506768e-05 -7.632262e-05 0.00017487918 4.384146e-05 -1.6656573e-05 -2.999351e-05 0.00018431584
8.233971e-05 -6.620949e-05 6.600227e-05 6.861925e-05 5.8382633e-05 0.0001911221 -0.0001932266 -9.402313e-05
4.553602e-05 -0.0001034096 2.5588586e-05 -1.6618136e-05 -9.886955e-05 4.09639e-05 4.0057097e-05 2.0098174e-05
-0.0078033577 0.02244194 -0.029909268 0.026298448 -0.03462517 0.024188895 0.013175347 -0.021514114
-0.022568848 -0.020941194 -0.02180216 0.035764612 0.014056196 0.0026279497 0.025641935 0.015368614
-0.031212447 -0.029508507 -0.0076239947 0.025468703 0.019055704 0.023725526 0.028773103 -0.013176497
-0.02011265 0.0102475 -0.009809536 0.020885564 0.008808671 0.018714327 0.02328047 -0.036717523

transformer.encoder.layers.0.self_attn.out_proj.weight f4 [32, 32]
00000000: 0306 a1be bf61 f1bc 3d12 073e 5ae8 cd3d
00000010: 991b e13c 8509 0cbe 272a 90bd ef6b e7bd
00000020: 5127 d9bd 591e a03a 232f a5bd e42a 66bd
00000030: 24c9 eebd 191a c4bd 5939 b5bd 12e3 ce3d
00000040: 4e5e b0bd 2b28 d03d 4fab c5bc 4b1f 71be
00000050: 0388 373d 53ac 71be ae1e 963e 2021 05be
00000060: d8d5 e53d f942 96bd 1069 bcbd 213b 91be
00000070: da1c 99be 3bfe 723e aaf8 7cbd 631b 9abe
00000080: 77d7 7ebe ef43 dbbd 756b 4cbd 6bdc cd3d
00000090: e105 ac39 eb62 91bd 71fa 5fbe 5926 85be
000000a0: 4ea9 433d 7811 cebd 5967 bc3c d077 8ebe
000000b0: aa56 10be 3d20 00be 5e88 e23d 5e06 7b3e
000000c0: 6c71 41be e343 3c3c 5dfd 3ebd ae29 ba3b
000000d0: b64c a33d 394a 44bc 366c 4dbe c249 76be
000000e0: c0b9 8c3e 86a7 d2bc c9cb 493e 9fc9 80be
000000f0: 61b1 013d 0b4e 5cbe 0730 423e 565c 31be
00000100: 5524 8e3e a248 a43d 302d 6cbe 6c26 843e
00000110: 504e 45bd 102c 763e 6f85 cfbc 1efa 4a3d
00000120: 257c 32bc c546 893e 9e0a 21be 11d8 d23d
00000130: 5eea bebd f89c 53be f92f 553e ca3c 8bbe
00000140: 829f 4dbe 2a34 75be 5ec5 8c3e e49a 323e
00000150: 58ce 26bd c844 17be 9f82 f13d 76a2 463e
00000160: 01fb 6e3d e275 91be cb75 d5bc 7417 a2bc
00000170: c420 4d3e 9ee2 493e bcfa 193e 7b5f 10bd
00000180: a41d aa3d 7ad0 fb3c 8c0f 1abe fa93 953e
00000190: 621c 183e b424 193e d57a 343d c648 58be
000001a0: a433 94be 29ee 553e ddea 4abe 5fbd 433d
000001b0: c0a5 883e d53e 8fbe 6e64 e83d 1fb0 173e
000001c0: 1254 413e 713b 62be 975e 95be a68c fabd
000001d0: d2a0 04be 796b 8ebe 31ef 2bbd 05c7 c5bd
000001e0: e500 32bd 7107 473e 4d78 45be b522 ebbd
000001f0: fa40 8ebe d0bb 9b3d 086c 9bbe 1d09 8fbe
00000200: 2b7f 4a3c 5f9d 85be 1625 883d 8c76 4dbe
00000210: e97d 143e f3d6 623e 974f cb3d e39b c93d
00000220: e7aa 33be 7be3 23be 797e a83e 1f25 ed3c
00000230: 6972 6a3e 4792 8abe 9abc 9d3d 5943 0fbd
00000240: 5fd0 2f3e 918e 40be 8477 b63d 7033 3ebe
00000250: 71b3 843d cbac 94be d1a4 cf3d 90ad a93e
00000260: e648 093e 45af fcbd 228b 7fbd db22 86be
00000270: 78aa 3d3e 949c 98bd d6fa 6c3d 39b3 98be
00000280: 28ec 263e 13ee 473d f191 b7bd 523d 523e
00000290: 68b2 383e 7ecc 2abe a629 b63c 1660 5dbe
000002a0: bd3f 863d 93ba 91be 5065 783c 2294 f93d
000002b0: 1a47 2a3e 6d9a 29bc b9b9 043e fedb eb3d
000002c0: ecac 6d3e 519c 923e cde1 873e cb15 55be
000002d0: 0964 493d b862 90be 0d22 053e ad2a 493e
000002e0: 7173 303e 0e37 4b3d acc8 8bbe 6dcb a2bd
000002f0: 25ea fd3d a06a a93e b38f cabd 5394 afbc
00000300: 77b9 003e 8508 7fbd a895 cf3c abdf e0bd
00000310: 5bc8 89be 6108 253e a962 56bd 9565 5d3e
00000320: 108f 8c3d c324 41bd 946a 7f3d 6ef4 16be
00000330: 8173 273e 489a 2f3e 40f2 ddbd 33fe 88be
00000340: bf34 01be 388d c5bc 86ff 8e3e 5624 353b
00000350: a260 283e ca91 9fbd 3d55 d3bc dd45 263e
00000360: b949 99be a4dc 16bd b0b6 a03e e824 2c3d
00000370: a721 54be c373 4b3e 333c 953d 9d3c 8fbe
00000380: c601 fb3d 140b 85be 3947 f13b bb16 1ebe
00000390: 69f5 67be 1e1f 2cbe 51fa 263c b0e7 693e
000003a0: 51df 363e 8529 d0bd d450 9cbe c254 cfbc
000003b0: ad85 023e d63f dfbc 5f9f 933e 2c00 45be
000003c0: b0b8 9abe ccf7 4d3d 8724 8cbd c9ad 323d
000003d0: d20b 28bc f0ef dd3d 0c67 323e 42ff 543e
000003e0: 1fe3 d0bd 76f9 00be 2c62 85be 3e29 ea3d
000003f0: 8bc9 89bd 4674 673e b443 f73d d136 153e
-0.314499 -0.029465554 0.13190551 0.10054083 0.02747898 -0.13675506 -0.0703929 -0.112998836
-0.10603202 0.0012216076 -0.08065631 -0.056193247 -0.11659458 -0.0957529 -0.08848829 0.10101904
-0.08611737 0.101639114 -0.024129538 -0.23547094 0.044807445 -0.23600893 0.29320282 -0.13000917
0.11222428 -0.07336993 -0.091997266 -0.28365424 -0.29904824 0.23729794 -0.061760582 -0.3009902
-0.24886881 -0.10706317 -0.049907167 0.10051807 0.00032810777 -0.07098945 -0.2187288 -0.2600582
0.047768883 -0.10061926 0.022998499 -0.27825785 -0.1409556 -0.12512298 0.11061166 0.24514148
-0.18890923 0.011490795 -0.046628345 0.005681238 0.07973616 -0.011980587 -0.2006081 -0.24051574
0.27485466 -0.025714647 0.19706644 -0.25153825 0.031663302 -0.21514146 0.18963633 -0.1732038
0.27762094 0.08021666 -0.23064113 0.25810564 -0.048170388 0.24040246 -0.02533218 0.049554937
-0.010893856 0.26811805 -0.15726706 0.10295118 -0.09322046 -0.20665348 0.20819081 -0.27194816
-0.20080379 -0.2394568 0.2749433 0.17441899 -0.04072413 -0.14772332 0.11792492 0.19397911
0.058344845 -0.2841025 -0.026057145 -0.019786574 0.2003203 0.19715354 0.15037054 -0.035247307
0.08306435 0.030739058 -0.15044993 0.2921446 0.14854577 0.14955407 0.044062454 -0.21121511
-0.2894565 0.20891632 -0.19816156 0.04778802 0.26688957 -0.27977625 0.113472804 0.14813279
0.18879727 -0.22092988 -0.2917373 -0.12233858 -0.12951973 -0.2781637 -0.041976158 -0.096571006
-0.043457884 0.19436432 -0.19284172 -0.11481229 -0.27783948 0.07604182 -0.3035586 -0.2793664
0.012359421 -0.26096627 0.066476986 -0.20064753 0.14501156 0.22152309 0.0992729 0.09844186
-0.17545663 -0.16004746 0.3290899 0.028948365 0.22895207 -0.27064726 0.077019885 -0.034976337
0.17169331 -0.18804385 0.089095145 -0.1857431 0.06479538 -0.2903808 0.10138858 0.3314023
0.13406715 -0.123381175 -0.062388547 -0.26198468 0.1852206 -0.0745174 0.057856403 -0.29824236
0.16301024 0.04881103 -0.08963383 0.20531204 0.18036807 -0.1667957 0.022236656 -0.21618685
0.06555126 -0.28462657 0.0151608735 0.12186457 0.16628686 -0.010351759 0.12961473 0.115165696
0.23210496 0.28634885 0.2653946 -0.20809095 0.049167667 -0.28200316 0.1300127 0.19645186
0.17231537 0.04961305 -0.27301538 -0.07948957 0.12398175 0.3308916 -0.0989069 -0.021433031
0.12570749 -0.062263984 0.025339916 -0.10980161 -0.26910672 0.16116478 -0.052340183 0.21620782
0.068632245 -0.0471542 0.0623575 -0.1474168 0.16352655 0.17148697 -0.10837221 -0.2675644
-0.12617777 -0.02411519 0.27929324 0.0027640066 0.16443112 -0.07791479 -0.02579748 0.16237588
-0.29939058 -0.036831513 0.3138938 0.042027384 -0.20715962 0.19868378 0.07286873 -0.27975932
0.12256198 -0.25985014 0.0073632267 -0.15438358 -0.2265221 -0.16808745 0.010191516 0.22842288
0.17858626 -0.10164169 -0.30530417 -0.02530897 0.12746306 -0.027252119 0.28832528 -0.19238347
-0.3021903 0.050285146 -0.068429045 0.043622766 -0.010256724 0.1083678 0.17422122 0.20800498
-0.1019957 -0.12595162 -0.26051462 0.114336476 -0.067278944 0.22602949 0.1207346 0.14571692

transformer.encoder.layers.0.self_attn.out_proj.bias f4 [32]
00000000: 7a6f a0bc 95e7 6d39 05f2 da3c a61c 1ebb
00000010: 302d c1bc 2ac4 903c 7883 e8bc 8a28 9cbb
00000020: ef9b 9d3b 132b cc3b ef6b c6bc eede 2c3c
00000030: 66a2 b33c 63b8 393c b366 01bc 1fb4 4cbc
00000040: 1d29 f83c b1d6 c33c 31ae d2bc e185 913c
00000050: 6375 b33c 62f9 6ebc 61ac a93c 06b5 9fbc
00000060: e605 62bc 3fc9 9e3c 296c 063c f4fa 433c
00000070: cd53 273c 54e8 f3bc 4bda 823c cec2 ddbc
-0.019584406 0.00022688352 0.026726732 -0.0024125963 -0.023581117 0.017671663 -0.028383002 -0.004765575
0.0048098485 0.006230721 -0.024221389 0.010551197 0.021928024 0.011335465 -0.007898021 -0.012494116
0.030293042 0.023906084 -0.025717827 0.017764034 0.02190656 -0.014585825 0.02071208 -0.019495498
-0.013795352 0.019383071 0.008204498 0.011961687 0.010212851 -0.029773869 0.01597323 -0.02707043

transformer.encoder.layers.0.linear1.weight f4 [64, 32]
00000000: fa37 e53d 24b8 733d 294f 19be e127 a7bc
00000010: 79d4 b83d ab75 99bc b379 f33d ea36 26be
00000020: 94b6 32be b71e 173e f140 5cbc 5867 2d3e
00000030: 10a1 123d b04e 5e3d 4393 fe3d 09c2 683e
00000040: c686 5fbd bfb7 18be b4a7 903d 6379 92bd
00000050: 4d06 613e c5dd 163c 7799 e1bd 20f6 653d
00000060: abd5 603d 12d8 51be 48c6 adbd f663 2c3e
00000070: 3e3e 673e c920 c4bd 2033 343e 1904 e2bd
00000080: 3058 63be 770c 4a3e 5ec9 aa3d 341e 7e3d
00000090: 5e4b 0b3e 6572 043e 1ab9 b0bd b28b 863e
000000a0: 799d 04be a6bd 033e e06d 443e 430c 903e
000000b0: da13 8fbe 2d19 373e 94ef 37be 830d 22bd
000000c0: 6ad0 973d 0534 d53d 6f23 483e dad8 34bc
000000d0: ac3b a1bd e4cc 5c3e f065 f8bc 67a9 e63d
000000e0: 7114 433e 267f 723e c8d7 3f3d e152 1cbc
000000f0: a031 413e ae29 08be 8b8d babd 97df 68be
00000100: 69c5 13bb cf1b 55be a52a 22be 306f 40be
00000110: e58f eebd 6f38 cd3d 7a00 cebc 4dc0 77bd
00000120: 8874 37be 2e30 36bd 2f60 273e b8c5 2dbe
00000130: dd10 783e 188d 03bd 0a4c 18be ec95 973d
00000140: b358 5b3d 43e6 403c bb70 c2bd d121 373e
00000150: 3cb3 163e 830c 243e 4783 d3bd 9341 f8bd
00000160: 0bb4 6e3e 552d 4c3e 90fc 8b3e 2171 64be
00000170: d284 bc3d 177a c2bd c3c5 f5bd ae63 5d3e
00000180: 25e2 a13d 7d04 7bbe 076e 223e 44ef a73d
00000190: d34a 38be c759 4abe 1805 9dbd 9c80 423e
000001a0: c85c 07be aa7e e53c 06ec 5b3e 1728 bb3c
000001b0: 84f8 38bd 4dc9 563d 9cd2 2abe 05dd 2fbe
000001c0: 9189 09be 89d5 13be 28e4 adbd b73b 753e
000001d0: 0a3c 9f3d 13fc 05bd 3daf d6bc 6858 22be
000001e0: 494d 2fbe 85c5 82bc 87d2 26be 05a4 0ebe
000001f0: cd84 b9bc e1bd e63d e36b 1e3e 55cb 813e
00000200: 0eb9 d23d 95f5 883e 7183 b6bd f718 07be
00000210: 1fac f23d e48a 453d e83e 663d 453a 3ebe
00000220: 02fd 38be 8278 89be faf3 0bbe e7cc 47be
00000230: da36 06be e61b 16be f3f9 acbc 3482 7bbd
00000240: 430b 23be 9c33 49bd 3e38 143d cd0e eebd
00000250: 2e6c 65be 342b 89be 1ccd 0ebe eab5 2b3e
00000260: 0dff eebd f989 bbbd 94bb 2b3d 5045 cbbd
00000270: 6557 42be 733a a2bd d3d9 2ebe 19a1 09bc
00000280: 422b eabc c079 72be 2d4a 4d3e 788b 18bc
00000290: 3f4e 543d 27a7 37be da73 d93c db24 d3bc
000002a0: e0e5 f3bc 8e41 7dbd 6c53 c73d 7f78 57bb
000002b0: ed75 c23d bc86 9fbd a637 193e e026 11bd
000002c0: e561 16be 8312 82be 7ae7 d13d ead1 a4bc
000002d0: 1cff 2c3d 4204 8f3d 5edc 6e3e 42ae 6abe
000002e0: 331d 7bbe a363 b03d e11a 863c 3eaa 8dbc
000002f0: 11c4 e33d 5692 bcbd f233 66be bcf3 b5bd
00000300: 6560 66be ba61 3f3d 9684 9cbb 3e19 4f3e
00000310: caca f4bd 937e 2e3e d224 1abe 167c 2f3e
00000320: 6a9c 6f3d 729e f9bd 94d3 07be 3f95 a63d
00000330: ea2e f9bd 62bf 9e3d 7a0a 073e 469e 4cbe
00000340: 481b 3bbe 9ba2 163e c45c 5abe 24bd 8abd
00000350: f8fb 6cbe 09d7 fabc e3a4 433e cb6e 34be
00000360: 5f71 13bd 05be 1c3e 1a52 833d 2910 6e3e
00000370: 079e 49be 3296 18be a7db 4f3e 7236 cfbd
00000380: d4d4 833d c408 4cbe 0b10 6abd 2f87 39bd
00000390: 9adf 63be 8843 523b a43f 8b3e 22bc a03d
000003a0: 0c7a 43be 948a 393a 723c a23d fb02 1dbe
000003b0: ee00 0d3e ec06 1ebe 5a75 99bd 11a8 60bd
000003c0: 1a59 91bd 48f3 4abe 5310 8abd 9c15 22be
000003d0: deec f23d 9267 303d 2344 8e3c 56bc d4bd
000003e0: 57b0 66be 1a34 603e 795d 773b 38c2 293e
000003f0: 928c 09bd 7973 55bc b7cb 4bbd 504d da3b
0.11192317 0.059501782 -0.14971603 -0.020404758 0.09024901 -0.018732866 0.11888447 -0.16231886
-0.1745246 0.1475781 -0.013443218 0.16933954 0.035798132 0.05427426 0.12430432 0.22730269
-0.05457189 -0.14913844 0.07063237 -0.07152059 0.2197506 0.009208147 -0.11015599 0.056142926
0.05489127 -0.2049258 -0.08485085 0.16835007 0.22582337 -0.09576566 0.17597628 -0.11035938
-0.2220161 0.19731317 0.08339189 0.062040523 0.13602969 0.12934263 -0.08629055 0.26278454
-0.12950696 0.12865314 0.19182539 0.28134355 -0.27944833 0.17880698 -0.17962486 -0.039563667
0.07412799 0.104103126 0.19544767 -0.01103803 -0.0787271 0.21562535 -0.030322045 0.1126278
0.19050767 0.23681316 0.046836644 -0.009541244 0.18866587 -0.1329715 -0.091090284 -0.22741543
-0.0022548086 -0.2081139 -0.1583658 -0.18792415 -0.116485395 0.100205295 -0.025146712 -0.060486127
-0.17915547 -0.04447954 0.16345285 -0.16969955 0.24225183 -0.03211698 -0.14872757 0.07401642
0.053551387 0.011773649 -0.09494158 0.17883994 0.1471681 0.16020398 -0.103277735 -0.12121882
0.23310868 0.19939168 0.27341127 -0.2230878 0.09205021 -0.09495943 -0.12000611 0.21620056
0.07904462 -0.24513431 0.15862285 0.08199933 -0.17997293 -0.1976081 -0.07666987 0.18994373
-0.13218987 0.0280145 0.21476755 0.022846265 -0.045158878 0.05243807 -0.16681904 -0.17174156
-0.13431384 -0.14436926 -0.08490783 0.2394856 0.077751234 -0.0327111 -0.026206607 -0.15854037
-0.17119326 -0.015963325 -0.16291247 -0.13929756 -0.022646332 0.11266685 0.15470843 0.25350443
0.10289203 0.26749864 -0.08911789 -0.13193117 0.11849236 0.04822816 0.056212336 -0.18576916
-0.18065265 -0.26849753 -0.13667288 -0.19511758 -0.13106862 -0.1465908 -0.021115279 -0.06140347
-0.15922265 -0.049121484 0.03618645 -0.11623917 -0.22404549 -0.26790774 -0.1394543 0.16768613
-0.11669741 -0.091571756 0.041926935 -0.0992533 -0.18978651 -0.079213046 -0.17075281 -0.008400225
-0.02858508 -0.23679256 0.20047827 -0.009310596 0.051832434 -0.17934857 0.0265445 -0.02577441
-0.029772699 -0.061830096 0.09732708 -0.0032878218 0.09495149 -0.077893704 0.14962634 -0.035437465
-0.14685781 -0.25404748 0.10249229 -0.020119626 0.04223548 0.06983234 0.23326251 -0.22918037
-0.24522857 0.08612754 0.016370239 -0.017293092 0.11121381 -0.09207599 -0.22480753 -0.08884379
-0.22497709 0.04672406 -0.0047765477 0.20224473 -0.119527414 0.17040472 -0.15053108 0.17137179
0.058498777 -0.12188424 -0.13264304 0.08133935 -0.12167151 0.07751347 0.1318759 -0.19982252
-0.18272126 0.14710467 -0.2132445 -0.06774357 -0.23142993 -0.030620115 0.19105868 -0.17620389
-0.03599679 0.15306862 0.06412144 0.23248352 -0.19689189 -0.14901045 0.20298634 -0.101178065
0.06437078 -0.19925219 -0.057144206 -0.045294937 -0.22253266 0.0032083709 0.2719699 0.078483835
-0.19089526 0.00070778397 0.07921685 -0.15333168 0.13769886 -0.15432328 -0.07493086 -0.05484778
-0.07097073 -0.19819367 -0.06741395 -0.15828556 0.11861585 0.043067522 0.017366474 -0.10387485
-0.22528206 0.21894875 0.0037744923 0.16577995 -0.033581324 -0.013028019 -0.049754824 0.0066620484

transformer.encoder.layers.0.linear1.bias f4 [64]
00000000: 772b 41be 4c21 1a3e c84f ac3d c714 fabd
00000010: 42b5 c73d 8ffc 0e3e f236 cabd 6a50 0ebc
00000020: 8848 743d 64b5 63bc 1598 1e3e f825 89bd
00000030: 9671 5abd 7a42 5d3d 9a2a 8e3d 6d44 f13d
00000040: e1a5 4cbe 2f68 97bd d73b e5bd 1bc3 b5bd
00000050: 12cd 99bd c4bb ddbd 2f44 fbbd f5aa 91bd
00000060: e6fb 0ebe fec9 7f3d c8f5 ca3d f151 68bd
00000070: f97d 0e3e 9456 aa3d e404 21be 0c90 813d
00000080: 37e8 3d3d df9b 353e 531b 6c3b d0b1 b2bd
00000090: aa4f 033e 9ad8 17be c6fd ba3d 5ba1 2fbe
000000a0: bfbb 8ebd 5926 4b3c 301a 17be 5687 c0bd
000000b0: 9720 9fbd c6ba 0abc 8f0f 893d 998c 0fbe
000000c0: 2b2f f83d 9ef0 803c bec6 503d 38d9 093d
000000d0: 199f 06be 8864 7c3a 6a79 1ebe 5ebc 163e
000000e0: 13cc 97bd b10e 43be d444 d63c 8863 d3bd
000000f0: efb6 25be 4d1b ccbd 3df2 aab9 cd74 5e3d
-0.18864237 0.15051764 0.084136546 -0.12210994 0.09751369 0.13963531 -0.09873761 -0.008686164
0.059639484 -0.013898227 0.15487702 -0.06696695 -0.05333098 0.054018475 0.06941719 0.11780629
-0.19985153 -0.07392918 -0.11193054 -0.08875104 -0.07509817 -0.10826829 -0.12268864 -0.071126856
-0.13963279 0.062448494 0.0991016 -0.05671877 0.13915242 0.08317295 -0.15724522 0.06326303
0.046364035 0.17735241 0.0036027029 -0.08725321 0.12823358 -0.1482872 0.09130435 -0.17151396
-0.069694035 0.0123992795 -0.14756083 -0.09400813 -0.07769888 -0.008467382 0.06692421 -0.14018477
0.121183716 0.015739735 0.050970785 0.03365442 -0.13146628 0.00096280174 -0.15476003 0.14720294
-0.07411971 -0.19048573 0.026155867 -0.103217185 -0.16183065 -0.09966145 -0.00032605408 0.05431061

transformer.encoder.layers.0.linear2.weight f4 [32, 64]
00000000: 1f97 54be 22e7 663e cf7a 66be 972b 0dbe
00000010: 60ed 223d 95cd 583d bfba 0abe 62b1 343e
00000020: b64f 1c3e 6b52 73bd ffc0 0fbe 95c4 583e
00000030: a593 8abd 87ed 13be b39b 5fbd 032a debd
00000040: f6bf 50be 7169 51bd d886 cbbd e0bd 85be
00000050: e01c 4f3e 57b0 433e 0d99 c03d dbfd 87bd
00000060: c662 833d 6549 d2bc 1900 183e 41db e6bd
00000070: 52a3 373d 7d28 f23a ff71 d93d 3aff 2dbe
00000080: 8dcb 183e 65e2 273e 856a 233e 184c 19bd
00000090: c2a4 13be 6417 603d e948 a63d dde1 18be
000000a0: 2ea3 e8bd 5e35 0d3e beae 6dbe 5d84 6c3e
000000b0: 9772 743e 1d10 51bd b946 023e 612f 1f3e
000000c0: e6bd 8b3c 93e5 e33b d4ca 063e f4f2 253e
000000d0: 5400 303e aca6 17bd 5bcb 3abc f130 68ba
000000e0: ad30 21bd c691 16be 166b 033e 5ded 55be
000000f0: 2f95 aa3d 1cad 12be 887a 223e 27d2 02bd
00000100: 92e7 6ebd ac62 733e 263e 6d3c 8f4c 033b
00000110: 06ec eabd 0a55 5b3e 3acd 7a3d 2591 1d3e
00000120: d2c8 4cbe db7b ca3d 1a04 05bc d466 be3d
00000130: a636 05be ae5f 89bd c760 9cbd 89ba a3bc
00000140: 753d 12be a058 e8bc e994 2fbe 7ebd f7bd
00000150: 593f 1f3e c6b8 2dbd db19 31bd 9249 e8bd
00000160: 924f 9ebd 35ab 363e 42e9 d83d 651f d5bc
00000170: e224 92bc 0f58 513e 30c3 f13d 81e2 473d
00000180: a88b d13d 644e 043e 10ce 51be 1033 1ebe
00000190: 668a 653e b5bc 053e 2b61 c23c 1f49 873e
000001a0: 3646 6e3e dae4 a83d 920b e43d d4f5 a53d
000001b0: 057c 24be 258b 503e 9999 103e 1584 60be
000001c0: da97 75bd d320 d6bb 96fd 2abe c929 3d3e
000001d0: 4cf7 a73d d9c1 693e 71fd 3bbe c41e 48be
000001e0: 8e77 4cbe a5b2 403d 329d 21be 8f08 4f3e
000001f0: e520 4d3e 8c4a 663e 01a8 09be f4bb 703e
00000200: bde3 e6bd 3e3f 6c3e 4729 013e 1377 0cbe
00000210: b27c 233d e068 edbc bb4d 263e 6f05 8f3e
00000220: 04a9 793e 978f 06be da34 2abc b213 2c3e
00000230: fd91 d7bd e574 f03d eac3 98bc 8e24 133d
00000240: 281b 2b3e 24d2 e23d 3d18 34be 1cc3 543e
00000250: fc91 e63d ce00 4cbe b987 683e 9630 613e
00000260: efb3 f13d 4fbd a1bd 26fd 24bd 5798 703d
00000270: 7dc0 25be 7b83 0f3d 4814 babd 9cc7 9d3d
00000280: 6560 163e 6c94 17be d27e 5abd 4f83 303c
00000290: f44e 54be c68f 803e 35e5 4e3e 3f9e 713c
000002a0: 7c74 dbbd 7fe2 563e 07b1 db3d ce51 f4bd
000002b0: 3663 05be 20ef 123e c8e9 403e f03a 273e
000002c0: a4a2 31be 2372 1e3d 7f1d cd3d b13a 553e
000002d0: f32f 8cbd 2d62 1b3e 5e9d be3d f9e8 07be
000002e0: ff54 55bd 18a4 fbbd 29f7 893d 3eec 9abd
000002f0: 7011 843e 0fc8 e13d 1862 b33d 2725 7dbd
00000300: a3df 2b3c 67fd 723c 6c99 753d d699 d9bd
00000310: 679d c8bd 89ec e1bd c48e 633e c1a8 97bd
00000320: 5ba4 c0bc d186 b63b 48b1 23be ef17 403e
00000330: 6500 903d 62c4 9bbd bfc0 3f3e 6a05 0dbe
00000340: 6617 7c3e ca5b c23d b60d 223e e734 aabd
00000350: 6280 833c 19e2 7fbe db6e 03be 5b88 26bd
00000360: 6286 7c3d 64a7 4ebe 911c 313e 5cd8 473e
00000370: 7397 d03d d376 5d3d 11ef 223e 0265 abbd
00000380: 6482 0d3d 32dd ebbd 5449 61bd e917 fc3d
00000390: ba74 6dbe cf18 2ebe 9644 303e 3026 23be
000003a0: 3494 a63d 5735 213e bfa3 34bd a986 34be
000003b0: 9601 023d 2e3e 5c3e c7b5 1cbe f366 073e
000003c0: ca3a 373e 7946 bd3d 68dd 73bd 4bd8 6dbe
000003d0: 9b8d 5cbe f373 173c 91dc e53c 8a02 c6bb
000003e0: 9655 58be 0a81 ebbc c444 563e abd2 723e
000003f0: a919 873c d8ae 3f3d 662f b63d a10b 663e
-0.20760773 0.22549108 -0.22507785 -0.1378616 0.03977716 0.052930433 -0.135478 0.17645791
0.15264782 -0.05940477 -0.14038466 0.2116874 -0.06766442 -0.14446078 -0.054591846 -0.10847857
-0.20385727 -0.051125947 -0.09937829 -0.26121426 0.20225859 0.19110237 0.09404192 -0.06640216
0.06415324 -0.025669763 0.14843787 -0.11272288 0.04483349 0.0018475201 0.10617446 -0.16991892
0.14921398 0.16394956 0.15958603 -0.037426084 -0.14418319 0.054709807 0.08119375 -0.1492991
-0.11359249 0.13789889 -0.2321119 0.23097368 0.23871838 -0.051040757 0.12722291 0.15545417
0.017058324 0.0069548576 0.1316331 0.1620596 0.17187625 -0.037024185 -0.011401023 -0.00088573905
-0.03935306 -0.14704046 0.12833819 -0.20891328 0.08329236 -0.14323848 0.15867054 -0.0319387
-0.05832631 0.23768109 0.014480149 0.0020034646 -0.11470799 0.21419159 0.061230876 0.153874
-0.19998482 0.09886905 -0.008118654 0.09296957 -0.13009128 -0.067077026 -0.07635646 -0.019986408
-0.14281256 -0.028362572 -0.17146648 -0.1209669 0.15551509 -0.04241254 -0.04323755 -0.113421574
-0.077300206 0.17838748 0.105913654 -0.026015947 -0.017839853 0.20443748 0.11804807 0.048799995
0.102317154 0.12920529 -0.20488763 -0.15449166 0.22416076 0.13060267 0.023727974 0.26422974
0.23268971 0.08246775 0.11135019 0.081035286 -0.16062935 0.2036558 0.14121093 -0.21925385
-0.05995927 -0.0065346747 -0.16698298 0.18472971 0.08201465 0.22827853 -0.18358399 -0.19542986
-0.19967481 0.04704537 -0.15782622 0.20218109 0.2003208 0.22489375 -0.13442995 0.23509198
-0.112739064 0.23071 0.12613402 -0.13717298 0.03991384 -0.028980672 0.1624059 0.27933833
0.2438088 -0.13140713 -0.010388577 0.16804388 -0.10525892 0.11741046 -0.018648107 0.035923533
0.16709578 0.110752374 -0.17587371 0.20777553 0.11258313 -0.19922182 0.22708024 0.2199119
0.11801898 -0.07897436 -0.040280484 0.058739033 -0.1618671 0.0350375 -0.090858996 0.07704088
0.14685209 -0.14802712 -0.0533436 0.010773494 -0.20733243 0.2510969 0.20204623 0.014747201
-0.10715577 0.20984839 0.10727125 -0.119296655 -0.13026127 0.14349031 0.1883918 0.16331077
-0.17347199 0.038683068 0.100153916 0.2082317 -0.06845083 0.1517417 0.09307359 -0.13272466
-0.05208301 -0.12287158 0.06736595 -0.07564591 0.25794554 0.11024486 0.08758944 -0.06180301
0.010490331 0.014830924 0.059960768 -0.10625045 -0.09795647 -0.110314436 0.2222243 -0.07405234
-0.02351587 0.0055702706 -0.15985596 0.1875913 0.07031325 -0.076058164 0.1872587 -0.13771597
0.24618301 0.094901636 0.15825543 -0.083108716 0.016052429 -0.24988593 -0.12835257 -0.040657382
0.061651595 -0.20181042 0.17296053 0.19516128 0.10185137 0.054068398 0.15911509 -0.08368875
0.03454818 -0.11516799 -0.05500157 0.12309248 -0.23189059 -0.17001651 0.17213663 -0.15932536
0.08133736 0.15743004 -0.044101473 -0.17629494 0.031739794 0.21508095 -0.15303718 0.13222866
0.1789352 0.09241957 -0.05953732 -0.2322704 -0.21538393 0.009243953 0.028059276 -0.006042783
-0.21126398 -0.028748054 0.2092467 0.23713176 0.016491728 0.046797603 0.08895759 0.22465374

transformer.encoder.layers.0.linear2.bias f4 [32]
00000000: 2619 bebd 7e05 3f3d 774d a63b f51a a73d
00000010: 7aa6 01bd a7c2 f83d dfbf 3dbd 5391 e7bd
00000020: fca8 ba39 9e45 babd c0b3 babd ef85 b53d
00000030: d8e9 0e3e 6ea1 abbd 2009 05be 76ec d83c
00000040: 1101 a0bd 4c8e 19bc 1a3e c03c e4b1 843d
00000050: e3b5 343c 6d43 2f3d 78af 42bd 6261 4cbd
00000060: b88c 3ebd 02bc d4bd fb8d 82bd c1e4 0e3d
00000070: 770f 493d 60d2 afbd a006 d13d 28cd d3bd
-0.092821404 0.046636097 0.0050751525 0.081594385 -0.031652905 0.12146502 -0.04632556 -0.11307015
0.00035602588 -0.0909531 -0.09116316 0.088634364 0.13956392 -0.083804 -0.12991762 0.02647994
-0.078127034 -0.009372305 0.023467112 0.064792424 0.011029693 0.04278891 -0.04753062 -0.04989756
-0.04652092 -0.10387422 -0.06374737 0.034886125 0.049087014 -0.08585048 0.10206342 -0.10341865

transformer.encoder.layers.0.norm1.weight f4 [32]
00000000: 0e06 7c3f 8a31 813f 9b6a 7c3f 38fe 7f3f
00000010: 5dfb 7b3f 7d1b 823f 4e7f 833f 41ad 7d3f
00000020: 59a7 7e3f 7db6 7d3f c83d 7f3f 5208 813f
00000030: 2ae2 793f 2181 803f 0d84 813f 8141 813f
00000040: 7174 783f 15d5 823f 106b 833f ead2 813f
00000050: c971 7a3f ca82 793f 2cc0 7a3f e31a 793f
00000060: d10a 773f 3349 823f dea6 803f 684d 813f
00000070: b6a8 7a3f d346 863f dbcb 7b3f d05e 7b3f
0.9844674 1.0093243 0.9860017 0.9999728 0.98430425 1.0164639 1.0273225 0.9909249
0.994741 0.9910658 0.99703646 1.0080664 0.97610724 1.0039407 1.0118424 1.0098115
0.97052675 1.0221277 1.0267048 1.0142491 0.9782987 0.97465193 0.9794948 0.9730665
0.9650088 1.0178589 1.0050924 1.0101748 0.9791368 1.0490364 0.98357934 0.9819155

transformer.encoder.layers.0.norm1.bias f4 [32]
00000000: 5dc5 9ebc 349d 1cbb 0460 d33c e530 1abb
00000010: 2529 c6bc c8a5 8a3c d357 f0bc 6eca 0abc
00000020: 3178 583b 3c52 363b 013f c3bc 701e 113c
00000030: dadf ae3c 3d02 073c 1b80 6bbc adad 77bc
00000040: 0892 ff3c abe6 c43c c4b6 d5bc c59d 8f3c
00000050: 013e 9d3c 7f58 8bbc 7c77 aa3c de52 9ebc
00000060: d14a 90bc 6e1f 9e3c a9ab 533b 51a5 3d3c
00000070: c23a 103c c867 f4bc a5ea 6e3c 3aa2 e8bc
-0.01938122 -0.0023897411 0.02580262 -0.0023527679 -0.024189541 0.016924754 -0.029338753 -0.008471115
0.0033030624 0.0027820012 -0.023833754 0.0088573545 0.021346975 0.00824028 -0.014373804 -0.015117091
0.031197563 0.024035772 -0.026088126 0.017531285 0.019194605 -0.017009972 0.020808928 -0.019326624
-0.0176138 0.019302096 0.0032298362 0.011575059 0.008803071 -0.029834643 0.014582311 -0.028397668

transformer.encoder.layers.0.norm2.weight f4 [32]
00000000: 9c92 773f 0079 813f f8dd 833f c16d 793f
00000010: 8dbb 823f f2f1 793f a99a 813f 3dff 7b3f
00000020: 5883 7d3f a9cc 813f 9b28 753f e9f8 773f
00000030: 70d3 793f 8389 7e3f 216b 803f 160a 7f3f
00000040: 00fe 793f f66c 833f dbdf 843f d8eb 7f3f
00000050: ae99 7c3f eceb 763f da83 7a3f 5a5b 783f
00000060: 07d9 7c3f 5f81 823f 46df 7c3f 1a3c 813f
00000070: 6b5e 793f 3943 843f 29d0 793f 1590 7c3f
0.96708083 1.0115051 1.0302114 0.97433096 1.0213486 0.97634804 1.0125324 0.9843634
0.9902854 1.0140582 0.95765084 0.9686418 0.97588253 0.99428576 1.0032693 0.99624765
0.976532 1.0267627 1.0380815 0.99969244 0.98671997 0.9645374 0.9785744 0.9701439
0.9876866 1.0195731 0.9877819 1.0096467 0.97409695 1.0333015 0.9758325 0.9865735

transformer.encoder.layers.0.norm2.bias f4 [32]
00000000: 1019 82bc e913 ad37 1574 013d d01d c2bc
00000010: 7ad9 acbc 6421 983c d5ea 93bc 91d2 80bc
00000020: 0932 82bb e595 87bc c024 b2bc a9af 8339
00000030: b92c c93c 585a 5dbb d25b ffbb edd6 17bc
00000040: 6839 e03c 21a5 e03c 8c67 eabc fca4 b63c
00000050: 0dd7 e4bb 4ac9 18bc a287 c23c b702 02bc
00000060: 288d e3bb 489c b63c a472 de3b bab4 993c
00000070: 1aaa 653c d0a3 01bd 7d98 553c 93bc 0dbd
-0.015881091 2.0632478e-05 0.031604845 -0.023695856 -0.021099795 0.01857061 -0.018056313 -0.015725406
-0.00397325 -0.016550967 -0.02174604 0.00025117144 0.024557458 -0.0033775773 -0.0077929283 -0.009267551
0.027371123 0.02742249 -0.028613828 0.022295468 -0.006983644 -0.009325335 0.023746315 -0.007935218
-0.0069443174 0.022291318 0.0067885686 0.018762935 0.014017606 -0.031650364 0.013036844 -0.034603667
